disease_model.pth (torch, 253729 bytes, 8 tensors)

net.0.weight f4 [256, 72]
0.014953777 -0.100648865 -0.0679367 0.10612624 -0.12616564 0.101563044 0.19859628 0.08728866
0.058773786 0.12153166 -0.07827391 -0.0144570535 0.11723504 0.17948471 -0.079965964 -0.06947037
0.123708084 0.18594126 -0.18398619 -0.054462105 0.050771754 -0.03375754 -0.014597064 0.12958625
0.010847718 -0.09582847 -0.18862224 0.112267666 -0.14231533 0.14532092 0.14379713 -0.033173777
0.007954122 0.17504278 0.14594428 -0.006316765 0.06558385 -0.004291486 -0.056893576 -0.032237507
-0.09584226 -0.011975899 -0.025968933 0.18010905 0.12648615 0.053571068 -0.068453416 -0.04147276
-0.0656123 -0.086159796 0.21033522 0.053387213 -0.12344015 -0.07317219 0.009073901 -0.12943205
0.19775976 0.025896821 -0.0889032 -0.029038392 0.045477804 0.07469115 -0.10080272 0.062000986
0.06291728 0.15459785 -0.047594383 -0.032518435 -0.05744385 0.094468184 -0.06810183 0.1584433
-0.07315885 -0.11717977 0.19825274 -0.10225025 0.056014672 -0.007902178 -0.035355575 -0.039816283
-0.05535938 0.21207988 -0.019551527 0.14866261 0.063187145 0.21387263 -0.09517005 -0.045009747
0.05472765 0.006573183 0.17038387 -0.1109046 0.104684055 -0.027181247 -0.0642814 -0.068207964
0.032331035 0.014884597 -0.006035369 0.029828167 0.10922589 0.11020631 0.03190835 -0.13599402
0.059085477 -0.08105239 -0.07037377 -0.13515033 0.010477812 -0.02180125 -0.114026144 0.05461358
0.14131604 0.02781693 0.16002555 -0.052570432 -0.075308874 -0.05581177 -0.027186573 -0.080750436
0.095240906 0.19920957 0.03138355 -0.07559116 0.21373819 0.08759887 -0.005573834 -0.08978254
0.006193213 0.03274308 0.048814826 -0.13612944 -0.08874549 0.01947579 -0.0117473565 0.0064219395
-0.05330077 0.011911358 0.051398136 -0.09502986 -0.11470072 0.030971618 0.07892885 0.12591952
-0.11442374 0.14564547 0.017656572 -0.030970046 0.13143605 -0.10230549 0.02795536 0.120922334
0.110070825 -0.045547906 -0.046169706 -0.059522197 0.055321705 0.020962976 0.07389479 0.02969527
0.059214044 -0.028918259 0.1646173 -0.09289605 0.032387663 0.04106474 0.15565749 0.039963003
0.20007697 -0.039236113 -0.062035073 -0.08653325 0.16581547 -0.10541552 -0.10361612 0.20500182
0.0066469037 -0.12547599 -0.103661746 -0.102354206 0.15562527 0.11097769 0.06748499 -0.053455967
-0.008362941 0.008214627 0.17379873 -0.08825221 -0.10159322 -0.09550996 0.052015223 0.16034873
-0.019958233 0.10350892 -0.07796641 -0.15325017 0.013883334 -0.10203267 0.05758337 0.016091777
-0.018927578 0.12093267 -0.02291562 -0.07467774 0.17936109 -0.09337328 -0.055648144 -0.020444352
-0.025791153 0.12386888 -0.087395065 -0.18501288 0.03829967 0.10756329 0.15956397 -0.066177376
-0.13690905 -0.0071774875 0.0910537 -0.16500331 0.058328398 0.14433105 -0.079867445 0.018246626
-0.09289443 -0.10190327 0.13022333 0.16938503 0.11253338 0.10018153 -0.022266855 0.13309017
0.011920795 0.15868777 -0.13584957 0.05169103 -0.06198428 -0.00453396 -0.06778626 0.19019265
0.19922161 0.06045819 0.12095343 -0.012439785 0.035255916 -0.16467398 0.07483498 -0.09885033
0.14302783 -0.052813284 0.07735611 -0.08306552 -0.07908944 0.07856172 0.04740477 0.035860833
00000000: b000 753c fe20 cebd 6622 8bbd b758 d93d
00000010: 9131 01be 4900 d03d d35c 4b3e 66c4 b23d
00000020: c8bc 703d 97e5 f83d 124e a0bd 47dd 6cbc
00000030: ed18 f03d d7ca 373e 32c5 a3bd 7b46 8ebd
00000040: aa5a fd3d 6367 3e3e e066 3cbe a813 5fbd
00000050: 0bf6 4f3d 5945 0abd 8628 6fbc 42b2 043e
00000060: a1ba 313c b841 c4bd 3026 41be 97ec e53d
00000070: 1cbb 11be 02cf 143e 8e3f 133e 3ae1 07bd
00000080: 0152 023c 6a3e 333e 6b72 153e defc cebb
00000090: d350 863d 989f 8cbb 3d09 69bd 7a0b 04bd
000000a0: f248 c4bd 9036 44bc cdbc d4bc 826e 383e
000000b0: 9685 013e 566d 5b3d 4e31 8cbd 57df 29bd
000000c0: be5f 86bd 8c74 b0bd 1e62 573e 8dac 5a3d
000000d0: 30ce fcbd 4ddb 95bd b3aa 143c d689 04be
000000e0: 8981 4a3e 9225 d43c e212 b6bd ece1 edbc
000000f0: ef46 3a3d acf7 983d a871 cebd bff4 7d3d
00000100: c6da 803d e64e 1e3e 54f2 42bd 0d32 05bd
00000110: 3e4a 6bbd 8978 c13d f978 8bbd f63e 223e
00000120: 4fd4 95bd f2fb efbd c402 4b3e 9468 d1bd
00000130: a46f 653d 2378 01bc 02d1 10bd 6616 23bd
00000140: 84c0 62bd 782b 593e 862a a0bc 033b 183e
00000150: 4368 813d 6d01 5b3e 84e8 c2bd 245c 38bd
00000160: 1a2a 603d db63 d73b 1c79 2e3e f321 e3bd
00000170: 9864 d63d 35ab debc f7a5 83bd 9eb0 8bbd
00000180: 8c6d 043d 86de 733c 58c4 c5bb 335a f43c
00000190: d3b1 df3d d9b3 e13d 54b2 023d 0442 0bbe
000001a0: 9d03 723d ccfe a5bd 2020 90bd d964 0abe
000001b0: 21ab 2b3c 8998 b2bc 8a86 e9bd 7db2 5f3d
000001c0: 27b5 103e 55e0 e33c bddd 233e 1854 57bd
000001d0: 8a3b 9abd e29a 64bd 60b6 debc 7c60 a5bd
000001e0: aa0d c33d 98fd 4b3e 0a8c 003d 8acf 9abd
000001f0: 2fde 5a3e 0967 b33d b5a4 b6bb e9df b7bd
00000200: 70f0 ca3b 9c1d 063d 0ef2 473d 8465 0bbe
00000210: 32c0 b5bd b18b 9f3c fc77 40bc 226f d23b
00000220: e951 5abd db27 433c da86 523d 049f c2bd
00000230: 36e8 eabd 31b8 fd3c 73a5 a13d 0cf1 003e
00000240: fe56 eabd 1624 153e 84a4 903c e5b4 fdbc
00000250: 2c97 063e 8a85 d1bd a402 e53c 21a6 f73d
00000260: d06c e13d 7190 3abd 721c 3dbd 8ccd 73bd
00000270: 0399 623d 8cba ab3c 2756 973d 7f43 f33c
00000280: 6d8a 723d fce5 ecbc 7091 283e 4940 bebd
00000290: eda8 043d 8033 283d ad64 1f3e 3fb0 233d
000002a0: fae0 4c3e 0cb6 20bd 7d18 7ebd 5838 b1bd
000002b0: 88cb 293e 18e4 d7bd b034 d4bd ffeb 513e
000002c0: 45ce d93b c77c 00be 9c4c d4bd 159f d1bd
000002d0: 3b5c 1f3e 4548 e33d 9235 8a3d a5f4 5abd
000002e0: b804 09bc a596 063c 4bf8 313e 93bd b4bd
000002f0: 1b10 d0bd ba9a c3bd ea0d 553d 7532 243e
00000300: 737f a3bc 7cfc d33d daac 9fbd 9ded 1cbe
00000310: ec76 633c 81f6 d0bd 8adc 6b3d e7d2 833c
00000320: 020e 9bbc 8cab f73d 8ab9 bbbc a5f0 98bd
00000330: 6faa 373e 7d3a bfbd 4fef 63bd ea7a a7bc
00000340: f847 d3bc f8ae fd3d 2ffc b2bd 0474 3dbe
00000350: 1de0 1c3d 244a dc3d bd64 233e 0188 87bd
00000360: e331 0cbe 2131 ebbb 5d7a ba3d a1f6 28be
00000370: c2e9 6e3d 85cb 133e 8b91 a3bd f379 953c
00000380: 6f3f bebd a9b2 d0bd 4459 053e 4573 2d3e
00000390: e777 e63d f92b cd3d fb68 b6bc ca48 083e
000003a0: 704f 433c 0c7f 223e 261c 0bbe f9b9 533d
000003b0: 3ae3 7dbd 9d91 94bb 86d3 8abd ddc1 423e
000003c0: c000 4c3e 02a3 773d 6fb6 f73d 3dd0 4bbc
000003d0: 8268 103d 4ca0 28be 1543 993d 0b72 cabd
000003e0: e375 123e be52 58bd e16c 9e3d 411e aabd
000003f0: a5f9 a1bd f8e4 a03d 812b 423d cfe2 123d

net.0.bias f4 [256]
0.0142523255 0.07674336 0.06638641 0.05563896 0.02746441 0.116661675 0.16063775 0.096915625
0.07046979 0.16575658 0.07345581 0.050209332 0.1330917 0.07864226 -0.0141382385 0.11311156
0.049984228 -0.020568615 0.16608489 -0.010537112 0.11905514 0.008723414 0.076104246 0.07412115
0.07634191 0.16784546 0.018839698 -0.0018520291 0.004251475 0.05639597 0.032848123 0.041822094
0.0937942 0.049167316 0.17188494 0.11520079 0.1936333 0.09190577 0.1660115 -0.002956772
0.078121886 0.012767524 0.0010307496 0.092202306 0.18201067 0.17816848 0.06624502 0.11492706
-0.02947091 0.08506673 0.067478955 0.082426995 0.012013016 0.19200471 0.023568302 0.13257478
0.18957748 0.036534924 -0.023039658 0.1247856 0.023890808 -0.01858288 0.17852151 0.09551246
0.0023003158 0.15277714 0.10930928 0.1160484 -0.022614911 0.0906597 0.0011044207 -0.002586958
0.01831153 0.13131216 0.13035816 -0.019828843 0.08909279 0.002423649 0.05023454 0.13456532
0.16754243 0.13676468 0.018901026 0.16263473 0.029359367 -0.02171037 0.050505213 0.113893874
0.1420815 0.069969915 0.022321124 0.012866736 0.07277053 0.07491776 0.10482308 0.03265863
0.1599147 0.13500589 0.1733765 0.18932727 0.03558724 0.038380135 0.09661781 0.010666174
-0.012131783 0.014445649 -0.0068221344 0.11082952 -0.029841708 0.16725388 0.07817685 0.06231397
0.056684665 0.09791412 0.04867537 0.15541881 0.022796445 -0.003848279 0.16111474 0.046753567
0.10378276 0.09883657 0.106903486 -0.0037300584 0.023423739 -0.001149806 0.10336214 0.15078075
0.07429149 0.14828043 0.023948349 0.10222209 -0.015828684 0.031244334 0.08082201 0.1315862
0.05374372 0.050754476 0.03217462 0.119813964 0.20568217 0.05262391 0.061052985 -0.02412499
0.17601544 0.014298538 0.006483075 0.037544917 0.13167292 0.18438527 0.13158578 0.13279155
0.14085391 0.036324017 0.014241723 0.0850001 0.17418614 0.037803717 -0.010020817 0.16903076
0.058292057 0.09406896 0.0050475677 0.19429263 0.0013871558 0.06383917 0.11479689 0.15638764
0.13651255 0.13765901 0.17146401 0.10291426 0.08086622 -0.036175407 0.12922116 0.06447957
0.02276843 0.11051187 0.12888522 -0.0025204073 -0.01613947 0.0010785193 0.13629998 0.1173879
0.10472403 0.034026954 0.18427461 0.16178183 0.19571282 0.19521256 0.12477684 -0.0037188916
0.024799028 0.046053305 -0.0024600283 0.19023171 0.1951045 0.08717856 0.0860982 0.027797015
0.057887763 0.0708873 0.08892528 0.01228805 0.084135115 0.057231646 0.042569667 0.18744583
0.13972305 0.00788857 0.16299038 0.027847745 0.14962311 0.18807632 0.12039266 0.031018067
0.08452066 0.116716295 0.10890049 0.13236172 0.032471556 0.12004006 0.13467471 0.17458808
0.033085503 0.13376197 -0.0068294406 0.19771843 0.009442376 0.0915113 0.18610804 -0.015331018
0.14332427 0.157603 0.176544 0.066664085 0.12653545 0.11382572 0.09799128 0.09840238
0.11979783 -0.0035702651 0.083884425 0.19076136 0.13538441 0.040228784 0.07149075 0.10695184
0.12305255 0.0069987145 0.03965699 0.06816611 0.100527756 0.1264827 0.18225038 0.03440084
00000000: 9682 693c 9f2b 9d3d 99f5 873d aee5 633d
00000010: 0bfd e03c 51ec ee3d 397e 243e b37b c63d
00000020: 7752 903d 18bc 293e 0070 963d 4da8 4d3d
00000030: 3149 083e 310f a13d 12a4 67bc 09a7 e73d
00000040: 43bc 4c3d 837f a8bc 2812 2a3e daa3 2cbc
00000050: 2ed3 f33d a6ec 0e3c 8bdc 9b3d d4cc 973d
00000060: 2659 9c3d aedf 2b3e b655 9a3c c9bf f2ba
00000070: f54f 8b3b 76ff 663d c18b 063d a54d 2b3d
00000080: 2c17 c03d ab63 493d 9b02 303e 64ee eb3d
00000090: cf47 463e 1839 bc3d ebfe 293e 67c6 41bb
000000a0: 5efe 9f3d e12e 513c 381a 873a 90d4 bc3d
000000b0: 0161 3a3e cc71 363e 78ab 873d e15e eb3d
000000c0: fa6c f1bc 7737 ae3d 6832 8a3d 7ccf a83d
000000d0: 3ed2 443c e29c 443e 5012 c13c afc1 073e
000000e0: 9920 423e a5a5 153d aabd bcbc 988f ff3d
000000f0: a8b6 c33c 203b 98bc 58ce 363e 099c c33d
00000100: e5c0 163b 9c71 1c3e 8bdd df3d c9aa ed3d
00000110: e842 b9bc cbab b93d 36c2 903a f489 29bb
00000120: 1002 963c b276 063e 9c7c 053e 1970 a2bc
00000130: 4876 b63d 15d6 1e3b bcc2 4d3d 7ecb 093e
00000140: 3e90 2b3e 0a0c 0c3e 53d6 9a3c b889 263e
00000150: 0e83 f03c f2d9 b1bc 8ede 4e3d 3141 e93d
00000160: d07d 113e 634c 8f3d cada b63c 01cf 523c
00000170: b708 953d 7c6e 993d 7cad d63d 0ec5 053d
00000180: aec0 233e fc3e 0a3e 9c89 313e 02df 413e
00000190: edc3 113d 7d34 1d3d 8fdf c53d 2dc1 2e3c
000001a0: 63c4 46bc 72ad 6c3c 368c dfbb 96fa e23d
000001b0: 9976 f4bc 9a44 2b3e 2f1b a03d ef3c 7f3d
000001c0: 2e2e 683d 3387 c83d d35f 473d 1c26 1f3e
000001d0: 9cbf ba3c 6833 7cbb 43fb 243e ab80 3f3d
000001e0: 0e8c d43d d46a ca3d 37f0 da3d ff73 74bb
000001f0: 24e3 bf3c 16b5 96ba 88af d33d 4566 1a3e
00000200: 2326 983d d3d6 173e 542f c43c d159 d13d
00000210: 28ab 81bc 1ef4 ff3c 0386 a53d 88be 063e
00000220: 6022 5c3d ede3 4f3d 89c9 033d 0661 f53d
00000230: 599e 523e 2b8c 573d b212 7a3d c5a1 c5bc
00000240: 643d 343e 6a44 6a3c fa6f d43b b3c8 193d
00000250: 44d5 063e 7ecf 3c3e 6cbe 063e 82fa 073e
00000260: 023c 103e 7ec8 143d 1e56 693c 8814 ae3d
00000270: da5d 323e 12d8 1a3d 5a2e 24bc 6616 2d3e
00000280: a7c3 6e3d 3aa7 c03d 1166 a53b a6f4 463e
00000290: 3ad1 b53a 1cbe 823d a21a eb3d 1524 203e
000002a0: f2c9 0b3e 7cf6 0c3e 4394 2f3e b6c4 d23d
000002b0: 309d a53d aa2c 14bd 8d52 043e dd0d 843d
000002c0: dc84 ba3c 0c54 e23d 7dfa 033e 6b2d 25bb
000002d0: ec36 84bc 1a5d 8d3a 3992 0b3e 1169 f03d
000002e0: 8d79 d63d d95f 0b3d 7cb2 3c3e 23aa 253e
000002f0: f168 483e cde5 473e 008b ff3d a6b8 73bb
00000300: 5527 cb3c 64a2 3c3d 6d38 21bb 1acc 423e
00000310: 79c9 473e ac8a b23d 4154 b03d 91b6 e33c
00000320: b81b 6d3d 5c2d 913d 751e b63d d153 493c
00000330: 084f ac3d bb6b 6a3d 885d 2e3d cdf1 3f3e
00000340: 8f13 0f3e 103f 013c f3e6 263e f420 e43c
00000350: cd36 193e 1497 403e 6d90 f63d 9a19 fe3c
00000360: 2b19 ad3d f408 ef3d 3807 df3d d589 073e
00000370: e500 053d 90d7 f53d 2be8 093e 38c7 323e
00000380: aa84 073d e6f8 083e 80c9 dfbb b376 4a3e
00000390: 32b4 1a3c 476a bb3d 1b93 3e3e f32e 7bbc
000003a0: 99c3 123e ae62 213e f3c7 343e 2e87 883d
000003b0: 8292 013e 761d e93d a7af c83d 3087 c93d
000003c0: 9158 f53d 1cfb 69bb 99cb ab3d f256 433e
000003d0: 36a2 0a3e f0c6 243d be69 923d 9109 db3d
000003e0: fa02 fc3d 7955 e53b 5e6f 223d ac9a 8b3d
000003f0: 7fe1 cd3d ae84 013e d89f 3a3e e5e7 0c3d

net.3.weight f4 [128, 256]
0.07410685 0.08805372 -0.09190794 0.053028118 0.14141561 -0.09183268 -0.05671231 0.063978486
0.039087456 0.08215672 0.09147566 0.12699029 0.10683434 0.024955373 0.07785871 -0.09726979
-0.07622532 0.101005025 0.115949415 0.11549853 0.08811871 0.014795218 -0.14554378 -0.1173249
0.024722854 0.13877633 0.05056143 0.017717073 -0.14788592 0.15380037 0.07961434 -0.049541175
0.023333408 0.042828582 0.13355695 0.068632714 -0.07862718 -0.12075147 0.12156272 -0.10292537
0.14009607 -0.023364635 -0.09991588 -0.07410707 0.13524362 -0.0111109335 0.009172417 0.04485719
-0.009619942 0.1248229 0.03151763 -0.104658514 -0.07410271 0.12797828 0.035096288 0.08809996
-0.055351183 -0.031326465 0.036701057 -0.06761202 0.05561374 -0.14130564 0.11306519 0.03808486
0.009451671 0.013449421 0.14814559 0.03252608 0.01338452 -0.056643058 0.052095134 -0.045501284
0.1575281 -0.0733106 0.069718175 -0.029238634 0.042111993 -0.13144952 0.10946488 -0.04391299
0.01572018 0.0032406957 -0.09444369 -0.09251878 0.0019036131 -0.12869895 -0.059633147 0.079020135
0.13086456 0.03193246 0.007668949 -0.044071525 0.057893977 0.04101922 0.028234042 -0.07728461
0.05983657 -0.028688837 0.04168541 0.04579606 0.09096695 0.057997383 0.02097581 -0.13396817
0.16188219 -0.04886183 0.096273534 -0.011240074 0.14462198 0.08917545 0.1065574 0.15945254
-0.023765678 0.10775446 0.036263082 -0.08447617 -0.12512308 0.078165345 0.0066410783 0.08684347
-0.025832882 -0.040522486 -0.12577705 0.11723528 0.07598735 -0.13884658 -0.096493244 0.093717664
0.05364774 0.042108025 -0.13782085 0.04540812 -0.0449901 -0.12969168 0.063825294 0.07201393
-0.024480402 -0.091542 0.11972908 -0.061308593 0.11902165 0.03603789 -0.0046616895 -0.06007141
0.056869846 0.031236826 -0.110234804 -0.037918538 -0.031257484 -0.055803034 0.05657619 -0.0025808003
-0.031966157 -0.028653031 0.053543236 0.07402284 0.12849395 0.11562709 0.0055860453 0.046514463
-0.049042042 0.07522421 -0.040511943 -0.054378606 -0.022504544 0.037964858 0.074275136 0.072149955
0.040700257 -0.06118828 0.09087646 -0.054773867 0.002721915 -0.10086149 0.06604917 -0.023008602
0.04818095 0.025187846 -0.060030814 -0.1511434 -0.004904481 0.110523686 0.0695966 -0.020314615
0.11079889 -0.04177516 -0.12687369 0.06191866 0.1477627 -0.098127216 0.014046066 -0.15046301
0.048633832 0.16580209 0.16867006 0.07863912 -0.121819824 -0.059579898 -0.091185756 0.038246613
0.075978026 -0.10409043 0.12999521 0.11394727 0.004168503 -0.15883511 0.12381384 0.024144918
0.10881158 0.09044783 0.0877886 -0.034113437 -0.11785373 0.1215406 -0.05035644 0.037143845
0.10308917 0.046969935 0.038196534 0.0061838157 -0.11401438 -0.072109245 -0.04688738 0.095448576
0.10184378 -0.028728832 0.083756484 -0.012378453 0.09986907 -0.108127944 0.019840706 -0.05403707
0.15708885 0.018756295 -0.08194225 -0.1055723 0.042065386 0.035643913 0.027960008 0.14496373
0.024905369 -0.13507475 -0.0023140362 0.010398504 0.073193565 0.060846213 -0.047256213 0.04534549
0.008102312 0.06952873 0.022283196 -0.058190767 0.1310977 0.026558496 -0.04656718 0.060587965
00000000: 55c5 973d 8255 b43d 3b3a bcbd 0334 593d
00000010: 41cf 103e c612 bcbd 2b4b 68bd 2707 833d
00000020: 2b1a 203d c841 a83d 9757 bb3d be09 023e
00000030: f6cb da3d 366f cc3c 6374 9f3d 6235 c7bd
00000040: 051c 9cbd b9db ce3d e376 ed3d 7e8a ec3d
00000050: 9577 b43d a467 723c 6e09 15be 0a48 f0bd
00000060: 9587 ca3c 621b 0e3e 8119 4f3d 6523 913c
00000070: 686f 17be d87d 1d3e d80c a33d b0eb 4abd
00000080: b425 bf3c 066d 2f3d 27c3 083e 4f8f 8c3d
00000090: 4907 a1bd 8c4c f7bd e0f5 f83d 89ca d2bd
000000a0: 5875 0f3e 3167 bfbc b2a0 ccbd 73c5 97bd
000000b0: 4e7d 0a3e a20a 36bc e847 163c 2cbc 373d
000000c0: f69c 1dbc 26a3 ff3d a118 013d 3457 d6bd
000000d0: 29c3 97bd bd0c 033e 20c1 0f3d c06d b43d
000000e0: ecb7 62bd 2e50 00bd d953 163d 2c78 8abd
000000f0: 3ccb 633d 6db2 10be b98e e73d dffe 1b3d
00000100: 2edb 1a3c f65a 5c3c 7ab3 173e 113a 053d
00000110: bf4a 5b3c 8d02 68bd b561 553d 8e5f 3abd
00000120: 0c4f 213e de23 96bd 67c8 8e3d dc85 efbc
00000130: a07d 2c3d b49a 06be 1f2f e03d 1bde 33bd
00000140: 9bc7 803c da61 543b b16b c1bd 7c7a bdbd
00000150: a882 f93a a8c9 03be e341 74bd 4fd5 a13d
00000160: 5c01 063e 9ccb 023d cf4b fb3b 5884 34bd
00000170: 3c22 6d3d c503 283d 144b e73c 6547 9ebd
00000180: 3117 753d da04 ebbc 52be 2a3d a694 3b3d
00000190: e14c ba3d aa8e 6d3d 76d5 ab3c f42e 09be
000001a0: 72c4 253e 5823 48bd 0f2b c53d 4a28 38bc
000001b0: c917 143e 9ea1 b63d c43a da3d 8747 233e
000001c0: 3db0 c2bc 5fae dc3d 9988 143d d801 adbd
000001d0: 4420 00be 2715 a03d 679d d93b fdda b13d
000001e0: 7b9f d3bc e8fa 25bd b3cb 00be 0d19 f03d
000001f0: 419f 9b3d cc2d 0ebe 409e c5bd 0cef bf3d
00000200: bcbd 5b3d 7779 2c3d e920 0dbe ddfd 393d
00000210: 8a47 38bd e5cd 04be d6b6 823d 0a7c 933d
00000220: 208b c8bc 5f7a bbbd 8534 f53d b81e 7bbd
00000230: 9fc1 f33d 779c 133d 16c1 98bb 700d 76bd
00000240: 5bf0 683d 5fe4 ff3c c9c2 e1bd 7850 1bbd
00000250: d907 00bd b991 64bd 6fbc 673d a522 29bb
00000260: f2ee 02bd c3b9 eabc 2750 5b3d 4999 973d
00000270: eb93 033e e5cd ec3d 250b b73b f385 3e3d
00000280: 4fe0 48bd 270f 9a3d daef 25bd 1abc 5ebd
00000290: 735b b8bc 0a81 1b3d 901d 983d 5bc3 933d
000002a0: 50b5 263d 90a0 7abd 701d ba3d 905a 60bd
000002b0: 2862 323b 7890 cebd ca44 873d 897c bcbc
000002c0: 6359 453d be56 ce3c dfe2 75bd 56c5 1abe
000002d0: c5b5 a0bb 3e5a e23d aa88 8e3d d66a a6bc
000002e0: 87ea e23d 6e1c 2bbd 2deb 01be 6c9e 7d3d
000002f0: 1b4f 173e ecf6 c8bd 7921 663c fa12 1abe
00000300: 4534 473d 06c8 293e d8b7 2c3e 8c0d a13d
00000310: ac7c f9bd 0d0a 74bd 99bf babd 7ba8 1c3d
00000320: 5e9a 9b3d 5d2d d5bd 771d 053e 305d e93d
00000330: f097 883b aca5 22be 1c92 fd3d 90cb c53c
00000340: 9bd8 de3d b63c b93d 82ca b33d 88ba 0bbd
00000350: 4c5d f1bd 47ea f83d 8e42 4ebd 2524 183d
00000360: 6a20 d33d 8c63 403d f873 1c3d 9ba1 ca3b
00000370: 5f80 e9bd 03ae 93bd fb0c 40bd 8b7a c33d
00000380: 7993 d03d ba58 ebbc 8588 ab3d ffce 4abc
00000390: 2888 cc3d 2f72 ddbd fa88 a23c fa55 5dbd
000003a0: e6db 203e cda6 993c 57d1 a7bd 4a36 d8bd
000003b0: c14c 2c3d 5aff 113d 630c e53c 5f71 143e
000003c0: 5806 cc3c 0951 0abe 16a7 17bb 7d5e 2a3c
000003d0: 82e6 953d e139 793d bb8f 41bd 31bc 393d
000003e0: 8fbf 043c 1465 8e3d 408b b63c 7159 6ebd
000003f0: 7a3e 063e 3491 d93c 3abd 3ebd 162b 783d

net.3.bias f4 [128]
0.031421557 0.12197087 0.11264615 -0.0035882648 0.017024547 0.11123478 0.07762749 -0.014775692
0.10903706 -0.014980358 0.017764615 0.01941938 0.009492324 0.035894617 0.04473762 -0.027000219
-0.0028676933 0.08406512 0.08172528 -0.0043612258 0.058342103 0.006375728 0.06995117 0.047477465
0.07090406 0.06568834 0.03627702 -0.005767626 -0.006682085 0.08550298 0.090392545 0.063553154
0.05439125 0.08383013 0.094910026 -0.02414489 0.05941811 0.06409723 0.045879144 0.106754944
0.08118486 0.1193162 0.063904986 0.035166543 0.1007948 0.036887664 0.09780865 0.03762772
0.12217679 0.088020846 0.10737573 0.12350319 0.039222863 -0.0098223 0.110046946 0.022554902
0.104110084 0.038683996 -0.011198996 0.045434218 0.10529306 0.10434935 0.057443045 0.06471259
0.037629355 0.045097724 -0.00754581 0.018596886 0.04497534 0.046335492 0.10395359 0.03840393
0.06725518 0.10300374 0.114137955 0.09064816 0.054455947 0.05954606 0.081503116 0.014132851
0.029370489 0.060083106 0.05678656 0.0044112853 0.016055554 0.084481865 0.047164276 0.012893149
0.10714371 0.07089431 0.06413367 0.06601324 0.040803466 0.072753645 0.073326215 0.064574406
0.06854245 0.10901645 0.01685668 0.051768612 0.0073464145 0.050401684 0.020841181 0.037968684
-0.014139266 0.043078747 -0.007614661 0.13474916 0.05876847 0.08620999 0.08108135 0.06166052
0.04668404 0.014845739 0.0835546 0.04879593 0.0003431064 0.03140624 0.066214874 0.09543475
0.036119785 0.04449594 0.082878985 0.08545255 0.06425525 0.05735113 0.089554705 0.032900363
00000000: e4b3 003d ddcb f93d 06b3 e63d 1829 6bbb
00000010: 1077 8b3c 0fcf e33d 29fb 9e3d be15 72bc
00000020: d24e df3d 2d70 75bc 1987 913c 6415 9f3c
00000030: b185 1b3c 3c06 133d cb3e 373d 902f ddbc
00000040: e9ef 3bbb 552a ac3d 955f a73d 9de8 8ebb
00000050: 21f8 6e3d 7ceb d03b 8f42 8f3d bb77 423d
00000060: 2636 913d 9c87 863d 3697 143d 5bfe bcbb
00000070: 64f5 dabb 301c af3d ba1f b93d 2828 823d
00000080: 5cc9 5e3d 22af ab3d 3060 c23d 81cb c5bc
00000090: 6760 733d 6945 833d c5eb 3b3d 56a2 da3d
000000a0: 3f44 a63d 0d5c f43d 9ee0 823d cb0a 103d
000000b0: 816d ce3d 8517 173d e74f c83d 861f 1a3d
000000c0: d337 fa3d 4644 b43d cfe7 db3d 3eef fc3d
000000d0: 27a8 203d b6ed 20bc 4b60 e13d 0fc5 b83c
000000e0: ab37 d53d 1c73 1e3d fe7b 37bc 3b19 3a3d
000000f0: e3a3 d73d 1db5 d53d 6649 6b3d 0988 843d
00000100: 3d21 1a3d 64b8 383d d842 f7bb 7f58 983c
00000110: 1038 383d 49ca 3d3d 9fe5 d43d 704d 1d3d
00000120: 15bd 893d a0f3 d23d 29c1 e93d bea5 b93d
00000130: 330d 5f3d 92e6 733d 1beb a63d 798d 673c
00000140: 619a f03c b419 763d 0699 683d 8b8c 903b
00000150: f086 833c d404 ad3d 542f 413d c93d 533c
00000160: 296e db3d 0931 913d 8358 833d f331 873d
00000170: 8921 273d ddff 943d 0e2c 963d 963f 843d
00000180: fc5f 8c3d 0444 df3d 0517 8a3c 530b 543d
00000190: 31ba f03b ff71 4e3d 20bb aa3c 0d85 1b3d
000001a0: 61a8 67bc 5773 303d 6884 f9bb affb 093e
000001b0: 35b7 703d dd8e b03d fb0d a63d be8f 7c3d
000001c0: c437 3f3d 8b3b 733c ad1e ab3d 3ede 473d
000001d0: f6e2 b339 d4a3 003d aa9b 873d 4b73 c33d
000001e0: 57f2 133d 6041 363d 75bc a93d bf01 af3d
000001f0: 4298 833d 05e9 6a3d 7568 b73d 88c2 063d

net.6.weight f4 [64, 128]
0.048265617 0.12432659 -0.18225789 0.11417349 0.16492939 0.13741888 0.09919579 0.0034393386
-0.111823745 -0.045958303 0.15591758 -0.06059318 0.13297205 0.021717371 -0.18229818 0.025572965
-0.16211154 -0.13328746 -0.123076394 0.089006625 0.1486956 -0.1363937 0.066296704 0.16130081
-0.08792535 0.05466977 0.091148056 -0.13353452 0.025260076 0.1588466 -0.04878952 0.10775431
0.14260967 -0.088947535 0.16902086 -0.010785012 -0.16353871 0.122621015 0.12544754 0.06753343
0.09246076 0.048824415 -0.1181277 0.12218083 -0.092447214 0.06974023 0.035826437 -0.01646459
0.10892232 0.15862636 0.12978059 0.07149549 0.14707287 -0.0050397785 -0.066233896 -0.17384176
0.13968286 0.078741826 -0.074016616 -0.073773935 -0.098223045 0.06314237 -0.16380551 0.10138348
-0.13695607 0.0900906 0.11833336 0.15165018 -0.004158015 0.010513048 0.14532234 0.08566966
0.072711006 -0.14143416 -0.0973595 0.06875597 0.05891931 -0.0016696673 0.07279823 0.15037313
-0.16471544 -0.07680034 0.12217349 -0.16997516 0.036747083 -0.15029396 0.07290787 -0.17540991
-0.09431545 0.060561024 -0.12853813 0.13150634 -0.11775537 -0.03648371 0.122614175 -0.16849524
0.060953964 -0.14938977 0.08820978 0.12736593 0.1642306 0.037562188 0.12362974 -0.12673639
0.11508259 0.16934429 0.1383399 0.011244916 0.045931734 -0.0633976 -0.119210586 -0.08316524
0.03423916 0.10268948 0.08448686 -0.015670976 -0.17765048 -0.14760818 -0.0713335 0.041321967
0.049876202 -0.15456764 -0.090611175 0.11399447 0.05004735 0.11491946 0.16506204 0.12104539
-0.12799789 -0.11784573 -0.089212306 0.14319098 0.14008583 -0.002048511 -0.1488981 -0.033363793
-0.10008776 0.14518782 0.057471883 0.023272702 -0.06505337 0.015776118 0.11611481 -0.029157724
-0.10151648 0.07855443 0.08043753 0.050368953 -0.08840542 0.04715572 -0.070922084 -0.0766223
-0.0887638 0.008544042 0.17982084 0.105878 -0.0024466505 -0.029266872 0.13654964 -0.08564295
-0.031492744 0.10738009 -0.08616729 0.10374751 0.10900041 0.04791118 -0.007650933 0.10141967
0.16480297 -0.09736405 -0.08460263 -0.06504471 0.113862485 -0.10402864 0.14711364 -0.007738327
0.07553591 -0.100214906 -0.04912476 0.010121683 0.15213273 -0.040511306 -0.030358717 0.1074966
-0.07175059 0.02901297 -0.11015797 0.15845773 -0.055587232 0.015412268 -0.11345152 -0.087381855
-0.1345861 0.1419913 -0.1528487 -0.08172705 -0.04443106 0.17925812 -0.109200105 0.010396365
0.03679506 0.16317008 0.15648775 0.041943457 -0.013319607 -0.1129725 -0.050859608 -0.049694147
0.09176419 0.1814912 0.10489278 -0.018311825 -0.02319047 0.12431359 0.18766642 0.019940848
-0.15183459 -0.04412259 -0.002475171 0.17216842 -0.055539336 0.16877909 -0.09185035 0.113838285
0.09541499 0.015764356 0.0014298584 0.08442306 -0.1292286 0.13625894 0.006784369 0.16042958
-0.0010685411 -0.038845684 -0.030837048 0.0027565197 -0.092056416 0.09818886 -0.0580965 0.09388402
0.12167322 0.07355716 -0.0964188 0.026185082 0.038682118 0.08199571 -0.07501331 -0.065884836
0.08913854 0.11970991 0.14267956 0.102250025 -0.11127741 -0.16679107 -0.045043338 -0.013156333
00000000: 2bb2 453d f09e fe3d d0a1 3abe cad3 e93d
00000010: 40e3 283e 89b7 0c3e 2a27 cb3d 8766 613b
00000020: d903 e5bd c63e 3cbd dca8 1f3e 8e30 78bd
00000030: d329 083e a1e8 b13c 60ac 3abe 657e d13c
00000040: 9100 26be 827c 08be 7a0f fcbd 1b49 b63d
00000050: a943 183e caaa 0bbe 91c6 873d 0a2c 253e
00000060: 3512 b4bd 69ed 5f3d d5ab ba3d 46bd 08be
00000070: 38ee ce3c afa8 223e 85d7 47bd 4bae dc3d
00000080: 4508 123e 202a b6bd ce13 2d3e 9eb3 30bc
00000090: b176 27be ba20 fb3d 5275 003e f84e 8a3d
000000a0: 115c bd3d 1cfc 473d f0ec f1bd f139 fa3d
000000b0: f754 bdbd f7d3 8e3d bebe 123d bfe0 86bc
000000c0: aa12 df3d f36e 223e 34e5 043e 3a6c 923d
000000d0: 459a 163e ba24 a5bb a3a5 87bd 9303 32be
000000e0: 0609 0f3e 6543 a13d 0696 97bd ca16 97bd
000000f0: 2a29 c9bd c950 813d a2bc 27be 24a2 cf3d
00000100: 363e 0cbe 6c81 b83d c358 f23d 2f4a 1b3e
00000110: f53f 88bb eb3e 2c3c 61cf 143e 9373 af3d
00000120: 82e9 943d 1ed4 10be 6b64 c7bd eecf 8c3d
00000130: 6055 713d bdd8 daba 3d17 953d 6afb 193e
00000140: 2aab 28be 7f49 9dbd 1836 fa3d f80d 2ebe
00000150: 1c84 163d a9e6 19be b950 953d a89e 33be
00000160: 7528 c1bd d60e 783d 809f 03be 99a9 063e
00000170: ba29 f1bd f16f 15bd 241d fb3d 048a 2cbe
00000180: ddaa 793d a2f9 18be 54a7 b43d 376c 023e
00000190: 112c 283e cfda 193d 9731 fd3d 2fc7 01be
000001a0: 6cb0 eb3d 9768 2d3e faa8 0d3e 993c 383c
000001b0: ea22 3c3d 9ad6 81bd ae24 f4bd 8a52 aabd
000001c0: 5d3e 0c3d dd4e d23d 7207 ad3d 6b60 80bc
000001d0: 02ea 35be 9926 17be 4c17 92bd 3941 293d
000001e0: fd4a 4c3d fb46 1ebe 5a92 b9bd ef75 e93d
000001f0: 73fe 4c3d e55a eb3d 0606 293e a5e6 f73d
00000200: e111 03be 1a59 f1bd f1b4 b6bd a8a0 123e
00000210: a972 0f3e 5040 06bb be78 18be 79a8 08bd
00000220: d0fa ccbd 1eac 143e a367 6b3d 65a6 be3c
00000230: b43a 85bd eb3c 813c 9acd ed3d 2edc eebc
00000240: dfe7 cfbd 25e1 a03d 6fbc a43d ad4f 4e3d
00000250: e70d b5bd 5b26 413d 993f 91bd 27ec 9cbd
00000260: ccc9 b5bd 4ffc 0b3c f422 383e 91d6 d83d
00000270: fc57 20bb 14c1 efbc abd3 0b3e 9265 afbd
00000280: 89fe 00bd 18ea db3d 7a78 b0bd 9379 d43d
00000290: 9b3b df3d 833e 443d aeb4 fabb 1eb5 cf3d
000002a0: 1cc2 283e ce66 c7bd 2544 adbd 2936 85bd
000002b0: bc30 e93d f80c d5bd f5a4 163e cb91 fdbb
000002c0: 92b2 9a3d 793d cdbd 0b37 49bd 6ad5 253c
000002d0: afc8 1b3e 2fef 25bd d8b2 f8bc 2d27 dc3d
000002e0: f9f1 92bd 9cac ed3c 809a e1bd be42 223e
000002f0: 70af 63bd bd83 7c3c 4559 e8bd 42f5 b2bd
00000300: f0d0 09be 2b66 113e 5f84 1cbe 8360 a7bd
00000310: 58fd 35bd 718f 373e 4ea4 dfbd 8455 2a3c
00000320: 6bb6 163d 0f16 273e 533e 203e e7cc 2b3d
00000330: 7b3a 5abc 205e e7bd 2a52 50bd 178c 4bbd
00000340: ddee bb3d d4d8 393e 07d2 d63d ae02 96bc
00000350: f1f9 bdbc 2098 fe3d a02b 403e fd5a a33c
00000360: 877a 1bbe e4b9 34bd 7a36 22bb eb4c 303e
00000370: 377d 63bd 6dd4 2c3e 091c bcbd 0c24 e93d
00000380: ef68 c33d 4024 813c 166a bb3a ffe5 ac3d
00000390: 8154 04be 7787 0b3e 694f de3b a747 243e
000003a0: 4a0e 8cba a71c 1fbd fa9d fcbc baa6 343b
000003b0: 1388 bcbd 3e17 c93d 98f6 6dbd 4446 c03d
000003c0: cf2f f93d 23a5 963d 3877 c5bd 1982 d63c
000003d0: 2471 1e3d 5eed a73d 94a0 99bd a1ee 86bd
000003e0: 448e b63d 782a f53d 971a 123e 7668 d13d
000003f0: 69e5 e3bd 47cb 2abe 5d7f 38bd a98d 57bc

net.6.bias f4 [64]
0.11154545 -0.019811004 0.09802382 0.098497555 0.014749978 0.10313424 -0.010649292 0.09953224
0.055218313 0.031855762 -0.007383829 -0.045372 -0.043981288 -0.055013157 0.11607855 0.031187607
-0.021931851 0.11511603 0.11034773 0.10400132 -0.025640128 0.07265222 0.051146273 0.03991394
0.09269075 0.008603701 0.11723786 0.046985112 0.064830124 0.071031325 0.061623055 0.0053835367
0.11847746 0.02165045 -0.028287716 0.087053746 0.06867589 0.09897436 0.10795561 0.00065631885
-0.04673099 0.095672034 0.0053688195 -0.07314313 0.056348782 0.08781121 0.11281047 -0.024350755
-0.009095233 0.081849515 0.056858942 0.04466487 -0.01711547 0.0627258 0.07579148 0.08443773
0.06635608 -0.032035377 0.11919459 0.058455475 -0.026557978 0.07496986 0.12519434 -0.039284725
00000000: f171 e43d b04a a2bc b6c0 c83d 16b9 c93d
00000010: e4a9 713c 0b38 d33d 5e7a 2ebc 8fd7 cb3d
00000020: 992c 623d 307b 023d 0cf4 f1bb fed7 39bd
00000030: b925 34bd 7a55 61bd 97ba ed3d 277d ff3c
00000040: 6daa b3bc f4c1 eb3d fefd e13d a5fe d43d
00000050: 3f0b d2bc b0ca 943d c17e 513d cd7c 233d
00000060: a6d4 bd3d 8af6 0c3c 671a f03d 7673 403d
00000070: a8c5 843d df78 913d 7568 7c3d 6168 b03b
00000080: 50a4 f23d 495c b13c a4bb e7bc 3c49 b23d
00000090: f2a5 8c3d 12b3 ca3d d517 dd3d d00c 2c3a
000000a0: ff68 3fbd b3ef c33d ecec af3b 11cc 95bd
000000b0: fbcd 663d 5dd6 b33d 2d09 e73d 3c7b c7bc
000000c0: 2c04 15bc b8a0 a73d ece4 683d 83f2 363d
000000d0: be35 8cbc 6276 803d 9038 9b3d b0ed ac3d
000000e0: b2e5 873d 8737 03bd 4b1c f43d 026f 6f3d
000000f0: 1e90 d9bc cc89 993d f232 003e 05e9 20bd

net.9.weight f4 [41, 64]
0.03971917 0.04018409 0.20047256 -0.19208975 0.2057358 0.14073811 -0.03236153 -0.13809112
0.20957097 0.16103399 -0.09562213 0.118421726 0.09650008 -0.14020133 0.15695755 0.20013964
-0.058755048 -0.1848627 -0.12390971 -0.02674375 -0.20939185 -0.07620154 -0.16322048 0.19033433
-0.0033232311 -0.17004663 0.10146093 -0.14511065 -0.09662302 -0.13145846 -0.003122225 -0.21874121
0.041865792 0.059652653 0.06466177 -0.108362645 0.19869304 0.118418135 0.04297681 -0.19125402
0.020964544 -0.17442231 0.073805615 -0.17856124 -0.21429743 0.06169689 -0.14406204 0.0937958
0.02821301 -0.047986392 0.07234329 -0.17174177 -0.16957249 0.0752763 -0.07043002 -0.07402291
0.19155696 -0.19673724 -0.097573616 0.16580944 -0.22164895 -0.13752216 0.010576769 -0.12936215
0.0048101563 -0.16752172 0.15969327 -0.2044074 -0.12004228 -0.18450384 0.08863656 0.07855158
0.08364147 -0.16877052 -0.13332099 -0.11535752 -0.21840428 -0.05088139 -0.19583243 0.1381831
-0.04572884 0.12401609 -0.16831338 -0.05405147 -0.03828056 -0.08368548 0.11477633 -0.12177893
-0.11091169 0.03829683 -0.19508642 -0.079204865 -0.17897525 0.19228269 0.14143656 -0.02893444
-0.088188276 -0.052936576 -0.16988812 0.15485181 0.05725972 -0.13388775 0.0498893 -0.022189764
0.16486156 -0.17357525 -0.033991434 -0.04184516 -0.14646071 0.081491314 0.115904704 0.07154347
0.046579443 0.18731108 -0.08679035 -0.18778302 0.11494352 0.16008769 0.1219321 0.16104294
-0.20633318 0.16948506 -0.19705284 0.013793114 -0.086858824 0.14558017 0.12975276 0.080413535
0.10357487 0.11601638 0.065977454 -0.011467515 0.010996078 0.12423887 0.058407106 0.17009236
-0.1820739 -0.19706188 -0.05425289 0.03269103 -0.033118702 -0.18185037 -0.019430894 0.16325
0.16826329 0.20532455 -0.14200892 -0.14967832 0.04761284 -0.0356579 -0.21418118 -0.11194336
-0.20952147 -0.15163398 -0.12764451 -0.03887391 0.18476577 0.14925238 -0.20497471 -0.16887935
0.2004058 -0.14275841 -0.03206792 0.017531134 0.113131516 0.0460783 -0.19548155 -0.18296334
-0.109465115 -0.17855182 0.10538756 -0.020807363 0.047944963 0.037702013 -0.024801798 0.18476026
-0.103707895 -0.21339542 0.10936625 0.0039442154 -0.13573891 0.121404625 0.014161571 -0.09896883
0.10347704 0.0951435 0.09610264 -0.19601928 -0.074203126 0.14124617 -0.076143764 -0.18335482
-0.043609034 -0.018470747 0.14917347 -0.04704425 -0.15298252 -0.045057572 -0.014312623 -0.15225759
-0.17291233 0.028505474 0.13949473 0.11525272 0.070099734 0.08829785 0.15917799 0.1587127
-0.14628547 -0.11783058 -0.18746263 0.006767881 -0.17274919 0.1684721 -0.10848191 0.1254656
-0.09074096 0.018318344 0.12210571 0.10908462 0.090088665 -0.17981501 0.1779592 -0.11358798
0.06644793 0.13943318 0.07785574 -0.14738888 0.124186315 -0.19312468 -0.0019873641 -0.12493544
-0.10227605 0.10129155 0.16576359 0.08665307 -0.09482934 -0.08562399 -0.04700815 -0.075381406
0.1616267 0.001534445 0.14917283 -0.040245123 0.17976682 -0.14725363 -0.09994063 -0.03908128
0.007484466 -0.12297493 -0.060500823 -0.19827397 -0.06969981 -0.054287303 -0.10429079 0.025800016
00000000: 92b0 223d 1398 243d ae48 4d3e 2db3 44be
00000010: 68ac 523e a71d 103e 868d 04bd c267 0dbe
00000020: c699 563e 18e6 243e 89d5 c3bd 1787 f23d
00000030: d5a1 c53d f090 0fbe 7bb9 203e 68f1 4c3e
00000040: 22a9 70bd a64c 3dbe 60c4 fdbd b515 dbbc
00000050: d16a 56be 8e0f 9cbd 4523 27be 01e7 423e
00000060: 91ca 59bb b420 2ebe c0ca cf3d e397 14be
00000070: 4ae2 c5bd 0c9d 06be 3e9e 4cbb b2fd 5fbe
00000080: 777b 2b3d 5756 743d 646d 843d 3ced ddbd
00000090: 3076 4b3e 3585 f23d 7408 303d 18d8 43be
000000a0: d6bd ab3c c39b 32be 6627 973d c2d8 36be
000000b0: c970 5bbe e1b5 7c3d 0085 13be 0318 c03d
000000c0: f81e e73c 618d 44bd b828 943d 13dd 2fbe
000000d0: 69a4 2dbe 762a 9a3d 9d3d 90bd 5399 97bd
000000e0: 8227 443e 7d75 49be add4 c7bd f3c9 293e
000000f0: f1f7 62be 9cd2 0cbe 2f4a 2d3c 8377 04be
00000100: 849e 9d3b d08a 2bbe a286 233e 2c50 51be
00000110: bad8 f5bd 93ee 3cbe 1687 b53d a7df a03d
00000120: 384c ab3d 2ed2 2cbe 4c85 08be 9040 ecbd
00000130: 5fa5 5fbe 0169 50bd 4c88 48be df7f 0d3e
00000140: 2a4e 3bbd 26fc fd3d 585a 2cbe 1365 5dbd
00000150: 14cc 1cbd 4b63 abbd da0f eb3d 3b67 f9bd
00000160: ab25 e3bd 23dd 1c3d bcc4 47be 2936 a2bd
00000170: 4a45 37be c1e5 443e bfd4 103e eb07 edbc
00000180: 0e9c b4bd 06d4 58bd 27f7 2dbe 7991 1e3e
00000190: 2b89 6a3d df19 09be b958 4c3d 4fc7 b5bc
000001a0: 78d1 283e b6bd 31be 9a3a 0bbd d565 2bbd
000001b0: ccf9 15be ebe4 a63d 725f ed3d 6285 923d
000001c0: 16ca 3e3d 7ace 3f3e 24bf b1bd 314a 40be
000001d0: 8267 eb3d 07ee 233e 89b7 f93d 71e8 243e
000001e0: 0149 53be 7e8d 2d3e 38c8 49be 83fc 613c
000001f0: 0ae3 b1bd f812 153e e8dd 043e daaf a43d
00000200: 101f d43d ff99 ed3d 301f 873d 3ee2 3bbc
00000210: e528 343c f370 fe3d 4a3c 6f3d b12c 2e3e
00000220: 9571 3abe 97ca 49be 4738 5ebd 08e7 053d
00000230: 7aa7 07bd fc36 3abe 8a2d 9fbc 022b 273e
00000240: 364d 2c3e 9940 523e c96a 11be 4645 19be
00000250: ae05 433d 050e 12bd 5052 5bbe 8f42 e5bd
00000260: cc8c 56be f045 1bbe 3eb5 02be 403a 1fbd
00000270: 3d33 3d3e 9ed5 183e e4e4 51be b5ee 2cbe
00000280: 2e37 4d3e 432f 12be a759 03bd 749d 8f3c
00000290: 7fb1 e73d 99bc 3c3d 512c 48be be5a 3bbe
000002a0: 3f2f e0bd 4ad6 36be 6fd5 d73d 3474 aabc
000002b0: f061 443d 6d6d 1a3d 242d cbbc cb31 3d3e
000002c0: ce64 d4bd 5484 5abe 6afb df3d 7a3e 813b
000002d0: 24ff 0abe fda2 f83d ef05 683c 2cb0 cabd
000002e0: c5eb d33d 98da c23d 76d1 c43d 47b9 48be
000002f0: cff7 97bd d6a2 103e 43f1 9bbd 5ec1 3bbe
00000300: 639f 32bd f74f 97bc eec0 183e 79b1 40bd
00000310: 73a7 1cbe 4a8e 38bd 7e7f 6abc 6ae9 1bbe
00000320: ee0f 31be 5084 e93c b5d7 0e3e 9e09 ec3d
00000330: 7390 8f3d 81d5 b43d 8eff 223e 9585 223e
00000340: dccb 15be 2951 f1bd 34f6 3fbe 1ac5 dd3b
00000350: 2ae5 30be f383 2c3e c32b debd 0e7a 003e
00000360: 65d6 b9bd 5a10 963c 8f12 fa3d c267 df3d
00000370: 6880 b83d 6d21 38be f03a 363e d1a0 e8bd
00000380: da15 883d 92c7 0e3e d572 9f3d 1ced 16be
00000390: 6555 fe3d 7ac2 45be 703e 02bb 27de ffbd
000003a0: 1b76 d1bd f271 cf3d eebd 293e 2a77 b13d
000003b0: e335 c2bd a15b afbd 9e8b 40bd 9161 9abd
000003c0: 7881 253e 6e1f c93a c3c0 183e 12d8 24bd
000003d0: cb14 383e a8c9 16be acad ccbd b113 20bd
000003e0: 4040 f53b 48da fbbd b6cf 77bd 5508 4bbe
000003f0: c6be 8ebd 5d5c 5ebd 6996 d5bd 8e5a d33c

net.9.bias f4 [41]
0.09519186 -0.053032037 0.030314319 -0.07318984 -0.08780009 -0.03624468 -5.472608e-05 0.116107546
-0.10819705 0.008007002 -0.059612256 0.05730287 -0.09566668 0.038881794 -0.10046631 -0.013577176
0.010951181 -0.068807155 0.093118034 -0.099147104 -0.024521785 -0.0753 -0.13971147 0.09993075
-0.1410887 0.13883826 0.12089907 -0.023512077 -0.0071458104 -0.03265173 0.049547087 0.11730838
0.0707807 -0.018547785 -0.11548232 0.016456218 0.0056801247 -0.06464363 0.059186302 -0.062782615
-0.078172386
00000000: f3f3 c23d 1f38 59bd bc55 f83c 8ee4 95bd
00000010: 89d0 b3bd 4d75 14bd ae89 65b8 cbc9 ed3d
00000020: 6a96 ddbd cd2f 033c fb2b 74bd 6ab6 6a3d
00000030: e4ec c3bd 8442 1f3d 48c1 cdbd ce72 5ebc
00000040: 956c 333c c4ea 8cbd abb4 be3d a30d cbbd
00000050: e9e1 c8bc e336 9abd 8610 0fbe 7ea8 cc3d
00000060: 8e79 10be 9e2b 0e3e ee99 f73d 669c c0bc
00000070: 6727 eabb d2bd 05bd e3f1 4a3d 603f f03d
00000080: 79f5 903d 86f1 97bc ff81 ecbd 31cf 863c
00000090: 5720 ba3b e163 84bd 566d 723d 2c94 80bd
000000a0: d818 a0bd
