disease_model.pth (torch, 253729 bytes, 8 tensors)

net.0.weight f4 [256, 72]
00000000: 8a55 ce3d 0cee 513e 923b b6bd a9c1 66be
00000010: cd83 84bd 9ba7 3fbe 01d9 80bd e8c9 f2bd
00000020: fe02 c0bd 2a6c fa3c 6fa2 dc3d 513b 323e
00000030: 73c9 fe3d 76cb b0bd 01d6 fa3d 6b71 3b3b
00000040: 7e71 3dbc e312 19bd f77d e33c 87c8 bfbb
00000050: 22b2 423e b4e1 cb3c ce52 0f3e c478 f0bd
00000060: 5c6e 2f3b fd49 8e3b 6914 e9bd ab9e 47be
00000070: e988 ee3c 96f4 003e f03e 0e3e a863 07be
00000080: 751c 243e c571 3a3e 1a86 573e 3ec3 01be
00000090: fe32 6b3c 0f34 673c 6d66 003e e00a 8ebd
000000a0: 2176 8cbc 30d7 a53d daa5 59bd 9fa4 543e
000000b0: 47e0 77bd 1490 29bd 61f6 e03a 9fc7 b2bd
000000c0: 281b 463e d155 63ba baf0 bc3c c320 f0bd
000000d0: 70bb 8037 4af9 58bd 24d4 ef3d bc07 be3d
000000e0: aef2 153d 16ed 15be 4c34 b63d ebd1 393e
000000f0: 3a0a 4c3e b75c c33d 33ac 01be 41bb 2bbd
00000100: caf2 8bbb 8fc5 f53d b629 5abd 4895 13be
00000110: 2e27 033e 7992 d03c 75c4 99bd e0af 3f3d
00000120: d8f8 f3bc 65d9 2abc 3415 cfbc ebae 113e
00000130: 17a0 073d 3889 243e 6918 903d 90af bd3d
00000140: b256 d5bd 902d f7bc 00ab b4bd 03ee 073e
00000150: 8a3e 2c3d 1251 5f3d e30a 4f3e 544a 9a3d
00000160: 82cb b9bc 3bf6 4dbe db8a 563e c951 1b3d
00000170: 78a0 05bd 7057 4bbc a935 dbbd 3fad 603d
00000180: 3198 f93d d1a0 86bd f330 87bd f5da 763d
00000190: 5139 52bb 32ce b43c c03c ddbc 2e21 a73c
000001a0: 1e03 623d df9b e03d cf35 56bc 332b a4bc
000001b0: 8fa4 ecbd 87ce d13d 83c1 c9bc 850a e43d
000001c0: a486 a6bd b2b0 a23d 58a8 b0bc 74b9 293e
000001d0: ec80 6b3d 7fb0 b6bd d4a7 dfbd 69ea c0bd
000001e0: 2ff4 96bd d5db efbc d336 3a3e 3444 01be
000001f0: 8a17 a63b 0d94 6dbd 5b94 863d 37c3 b63d
00000200: 443a 3e3e a287 e2bd 3967 86bd 1864 3ebe
00000210: deb0 4bbd 011f ebbd d377 78bd f122 e93d
00000220: fb12 b03d 9566 d4bd 2a39 c4bd f03d 093e
00000230: 1d9f 24bc 9af3 d93d 6be3 d2bc e340 34be
00000240: 04d4 99bd d989 79bd f23c 80bd 8ed6 9b3d
00000250: 8f66 e2bd ce14 d43c 73ae afbd f74c 27bd
00000260: 5c6f 293e 7d70 6d3c e7ce b93d 0e0a 093e
00000270: b767 24bd 48a6 0a3d fe9a 06bc 99d0 ef3c
00000280: f566 983d a6b3 383e af86 023e 4143 433e
00000290: 0046 eabd e86e 5cbc de86 99bd 4858 b4bd
000002a0: 50fe d93b 3c41 1b3e f83f f03c 3ff4 873d
000002b0: ebaf 07bd 46fb 453e 51e6 62bd dfcd b03d
000002c0: 09e4 06be 8c26 36be 412c 4e3d d769 b83b
000002d0: 72dc cfbd 755a a1bc 34ab cebd a830 893d
000002e0: 0688 403e 1ae0 563e 7e7b 963d c23a 8abd
000002f0: d826 68bc 1f2f 943d 365e 87bd 57c5 28bd
00000300: bdd0 ce3c 24b2 9cbc 2d40 01bb 820f 12bd
00000310: 8d86 c73c b7f5 3b3e 79b1 0ebc 25c8 d73b
00000320: 4f33 a5bd f19f ecbd 0cb7 af3d 881f 7cbd
00000330: dc15 e5bd 10c1 21bd 6798 3b3e 3490 f7bd
00000340: 838d 163d 5b44 e3bd 33bf dd3c 5866 bcbd
00000350: 3798 4b3c 35db 90bd c020 11be 0803 ff3d
00000360: 535f 7c3d 917a 923c 038f 09be 0ccb 3e3d
00000370: e14f d03d 1c06 013e 87e7 93bd 7297 eebc
00000380: 0cd5 0a3d 3dc6 2ebe 9384 9abd 13ce 2b3e
00000390: d7ec 363d 2692 5f3d 7b5d 263e 4f13 143d
000003a0: b3f6 173e b259 3ebe 22fa 323e cd71 0a3d
000003b0: 8397 b1ba ef2a 3abd 4c4d f43c 32f7 54bd
000003c0: a1e8 bb3d 1ea9 aebd f713 f03d 9ddf d2bc
000003d0: 2c9b 18bd b95d 19be 483d 693c 4d56 0cbd
000003e0: 1c77 ee3d 078b 2fbd f3e7 cfbd c0cc 343e
000003f0: 0ba1 b0bd f299 0c3e acd6 7e3d 9e74 ed3c
0.10074909 0.20500964 -0.08898081 -0.22534813 -0.064704515 -0.1871628 -0.0629139 -0.11854917
-0.09375571 0.030569155 0.10773169 0.1740544 0.12440767 -0.08632557 0.12247849 0.0028601538
-0.011562703 -0.037371527 0.027770026 -0.005852762 0.19013265 0.024887897 0.13996431 -0.11741784
0.002676866 0.004342316 -0.11380846 -0.19494121 0.029118018 0.12593302 0.13891196 -0.1322161
0.1602648 0.18207462 0.2104725 -0.12672135 0.014355419 0.014111533 0.12539072 -0.06935668
-0.017146172 0.080976844 -0.053136684 0.20765923 -0.060516622 -0.04139717 0.001716327 -0.08729481
0.19346297 -0.00086721504 0.023064006 -0.11724999 1.5346071e-05 -0.052972116 0.117103845 0.09278819
0.03660839 -0.14641222 0.088966936 0.18146484 0.19925776 0.09539168 -0.12663345 -0.041926626
-0.004270886 0.12000572 -0.053262435 -0.14412415 0.12807915 0.025460469 -0.07508174 0.046798587
-0.029781744 -0.010427807 -0.025278665 0.14226882 0.033111658 0.1606797 0.07035906 0.092620015
-0.104169264 -0.030173093 -0.08821678 0.13274388 0.04205183 0.054520674 0.20218997 0.07533708
-0.022680048 -0.2011346 0.20951407 0.037919793 -0.032623738 -0.012410983 -0.10703594 0.05485272
0.12187231 -0.06573642 -0.06601133 0.060267407 -0.003207762 0.022070978 -0.027006507 0.020401563
0.055178754 0.1096723 -0.013074352 -0.02004013 -0.115548246 0.1024447 -0.024628406 0.11134819
-0.081311494 0.07943858 -0.021564648 0.16574651 0.057495996 -0.08920383 -0.109206825 -0.0941971
-0.07370793 -0.029279629 0.18184976 -0.12623674 0.005068724 -0.05800252 0.06571265 0.08923953
0.18576914 -0.11061026 -0.06562657 -0.1859287 -0.04972922 -0.11480523 -0.06066115 0.11383618
0.0859737 -0.103711285 -0.09581216 0.13402534 -0.010047701 0.106421664 -0.025743207 -0.17602877
-0.07511142 -0.060922477 -0.062616244 0.076092824 -0.11054718 0.025888827 -0.085781954 -0.040844884
0.16546386 0.014492151 0.090726666 0.13382742 -0.040137973 0.033849984 -0.008215664 0.029274272
0.074415125 0.1803728 0.1274669 0.19068624 -0.11439133 -0.0134541765 -0.07496427 -0.08805901
0.006652631 0.15161604 0.029327378 0.06638383 -0.033126753 0.19334134 -0.055395428 0.08633017
-0.13172926 -0.17788142 0.050335173 0.0056278515 -0.101494685 -0.019696454 -0.10091248 0.066987336
0.18801889 0.20983925 0.07347773 -0.067494884 -0.014169417 0.0723555 -0.06609766 -0.041203823
0.025246019 -0.019127913 -0.001972209 -0.03565932 0.024356151 0.18355452 -0.008709305 0.0065851384
-0.08066427 -0.11553944 0.08579835 -0.061553508 -0.1118581 -0.03949076 0.18319856 -0.120880514
0.03675605 -0.11097022 0.02706871 -0.09199208 0.012426428 -0.070730604 -0.1417265 0.1245175
0.061614346 0.01788071 -0.13433461 0.04658036 0.10171486 0.12599987 -0.07221895 -0.02912495
0.033894584 -0.1706781 -0.07544818 0.1677783 0.04465946 0.054582737 0.16246597 0.036151227
0.14840202 -0.18588904 0.1747823 0.033799935 -0.0013549182 -0.0454511 0.029822014 -0.051993556
0.0917523 -0.0852835 0.11722558 -0.025741393 -0.03725736 -0.14977159 0.014235802 -0.03426199
0.11643812 -0.042857196 -0.10151663 0.17656231 -0.086244665 0.137306 0.062216446 0.028986271

net.0.bias f4 [256]
00000000: 9c5c a33d e048 e93d c1cd 933d b88c 9bbb
00000010: 1301 153c 92ff 213e 2c3b da3d 66a3 da3c
00000020: ab52 913c a0f1 b0bc f2f7 413d 09e0 8f3d
00000030: 264f 0b3e 1d59 ea3c b795 5b3d 8e6d 393e
00000040: 37fc c43b 6b78 013e 6daf 4c3e c102 633d
00000050: 3f6d 2e3e 3caf 4f3c 5693 0f3e 3358 b13d
00000060: b1e7 f03d 5c5e 003e 8ed0 3a3e 4e9c 103e
00000070: 1483 3e3e 0871 0d3e ce27 b93d 5714 3e3d
00000080: b39c 8b3d 6b90 423e 6b8e d83d fab0 9e3c
00000090: 89e5 183e 4e82 d33c 910b ad3c 5dac b6bb
000000a0: c1b7 f13c 13bb 073e db45 033e d30b db3d
000000b0: 0665 10bc 9315 82bc 80e8 093d 3ed0 86bc
000000c0: a15a ce3d 0ad0 4a3d d5c8 e73d e851 803d
000000d0: 8fbc 083e 4a94 193e 6620 173e b746 b33c
000000e0: df5c 013e 00fe 0b3e 1fe2 853d 0c01 8c3d
000000f0: a3b9 2c3d 31fd 713d babe aa3d e796 233e
00000100: 911f 093e d179 1b3e 82e7 e83d 7579 aa3d
00000110: d454 223d 1e25 2c3e 8312 2e3d b6cf 103e
00000120: 678c d23d 4a16 943b e12f 093e b9f1 5f3d
00000130: 0582 3ebc 3f02 153e 797c 093e 7d1e 4f3e
00000140: 486e b73d 667b 1f3e df62 3d3e 7ba9 dabc
00000150: c462 223e 416e 173e 98d6 443d 2182 333e
00000160: 0718 193e bbff 0e3e 2e68 2a3e d989 d13d
00000170: 9cfa 0c3e 403a 83bb 7d9a 353d 7514 1e3e
00000180: 4071 c83d 7082 cc3d 71a1 083e 5d46 fb3d
00000190: e332 9c3d 1d54 ae3d c9e6 0e3e 9ec1 1e3e
000001a0: 84fd 2e3d 9604 cd3d 4edf 1fbc 67ee 763d
000001b0: b93e 5c3b 44cd 263e 5a58 9a3d 3d0b 2a3e
000001c0: 221e 283e b015 313e b2ce 993d fd29 11bc
000001d0: 5e9d c03b 8235 3b3e a71b e13d f33e 183e
000001e0: a1ad ce3c 56bf a23d 5568 063e e55b a73d
000001f0: a6e8 363e 939f 2c3c c1d3 b93d b49b 623d
00000200: 1713 80ba 67d1 273e 3014 4d3c a84c 913d
00000210: c84a db3d 8b1e 4c3e e03f 103e 7bc9 973d
00000220: 4a7f c63d 2929 1c3e ac02 353e 45f2 bc3d
00000230: ac38 e73d f65e 283e 0c0d 283e e04c c43a
00000240: 7b87 d63d f84d 8b3d d734 3a3e 5468 ae3d
00000250: 21b2 0e3e f4f7 863d c78e e63d b665 a73d
00000260: 0dce 1a3d 4c8b 1cbd 80cd 593b 78dc 423e
00000270: ad72 5b3d 862a df3c f21b fc3c e975 3d3d
00000280: cba8 113e 4b1c 023e 6178 0c3e fc31 fbbb
00000290: 2909 b83d 7af7 2a3e 7b22 243e 20f6 d1bb
000002a0: 5bec 6c3d 6323 e63c 05c7 103d 8052 953d
000002b0: 9f31 f63d dca1 423e f790 463d 0d89 3f3e
000002c0: 9441 9e3d b7b9 c2bb ce1d a5bc acda 0b3d
000002d0: cf46 ef3d 9d9d 3c3d ea9f 7b3c 3ced 4aba
000002e0: 4e9e 86bc 41e6 fa3d de4f f13d e442 2f3e
000002f0: 5c1c 133e 2099 153e dfc2 9e3d 97d5 403e
00000300: 5979 253d 7955 b9bb 390c 133b f5e5 623d
00000310: f7fd 143e 663a 493e 3a1b 1d3e 853d 2e3e
00000320: 014c a63d ef1f b33d 554d 003e 405d 0d3e
00000330: 00be 783a 4190 6fbc a2d0 593d 4943 ae3c
00000340: eb69 1e3d bdc0 9f3d 44eb 763d dd54 973d
00000350: 92d9 f03d afec e13d 7a25 623d f493 123e
00000360: 945e e83d 7d8a 633d ccae 133e 41f0 a13d
00000370: bfe9 1a3e abe6 013e b2e9 4a3e b751 433e
00000380: bd40 213e e207 453e ac0c ba3d db46 423e
00000390: f819 82bc 0d91 ed3d 7c9e 203e 861c dcbc
000003a0: 3d05 2b3e 1f1c ba3c 2146 083e b3a2 043e
000003b0: 910f bb3d 8294 a1bc b806 393e 3142 dd3b
000003c0: 0dd0 b03c 11a1 953c d3a7 183e 4685 ca3a
000003d0: 4683 0e3e 1b06 813d b486 073e b3ad 033e
000003e0: 658b d53d 0ef5 e93d e66d 7f3d e7f5 103e
000003f0: 8d65 653d a8f3 fc3d aa33 08bd a482 553d
0.07976648 0.11390853 0.07216979 -0.0047469996 0.009094494 0.15820149 0.106558174 0.026689243
0.017739614 -0.02159959 0.0473556 0.07025153 0.13604411 0.028606946 0.053609576 0.18108198
0.0060115117 0.12643592 0.19988795 0.05542255 0.17033862 0.0126760565 0.14021048 0.08659401
0.11762942 0.12535995 0.1824362 0.14122126 0.1860469 0.13812649 0.09040795 0.046406116
0.068169974 0.19000404 0.10574039 0.019371498 0.1493131 0.02581897 0.02112368 -0.0055747465
0.029506566 0.13254957 0.12819616 0.10695615 -0.008813148 -0.015879428 0.033668995 -0.01645672
0.1007588 0.049514808 0.113176025 0.062656224 0.1335318 0.14997974 0.14758453 0.021884305
0.12633084 0.13671112 0.0653727 0.06836137 0.042169224 0.059079353 0.083371595 0.15975533
0.13390948 0.15183188 0.113722816 0.08323947 0.03963168 0.16811034 0.042498123 0.14141735
0.10280686 0.0045192586 0.1339717 0.054673884 -0.011627679 0.14551638 0.13426389 0.20226474
0.08956581 0.15574417 0.18494748 -0.026692143 0.15857989 0.14788152 0.048056215 0.17530109
0.14950572 0.13964741 0.16641304 0.102313705 0.13767475 -0.0040047467 0.044336785 0.15437491
0.09787226 0.099858165 0.13342835 0.1226928 0.07626893 0.08512137 0.13955225 0.15503547
0.04272224 0.1001064 -0.00975783 0.060285952 0.0033606722 0.1628924 0.07536383 0.1660585
0.16417745 0.1729343 0.07510127 -0.008860108 0.0058781346 0.1828213 0.109916024 0.14867763
0.025229277 0.07946651 0.13125737 0.08171824 0.17862186 0.010536092 0.09073592 0.05532427
-0.0009771314 0.16388474 0.01251702 0.07094699 0.10707623 0.19933526 0.14086866 0.07411476
0.09692247 0.15250076 0.176768 0.09225897 0.11290106 0.16442475 0.16411227 0.0014976524
0.104750596 0.06801981 0.1818422 0.08515993 0.13935138 0.06590262 0.11257701 0.08173697
0.03779416 -0.03821878 0.003323406 0.19029415 0.05357616 0.027241956 0.030775044 0.046255026
0.14224546 0.12706105 0.13717796 -0.0076658707 0.08986122 0.16695967 0.16028778 -0.006407514
0.057842594 0.028093046 0.03534605 0.07291126 0.12021183 0.19007057 0.048478093 0.18704624
0.07727352 -0.005942549 -0.020155814 0.03414409 0.116834275 0.04604875 0.015357951 -0.0007741039
-0.016432907 0.12250949 0.117828116 0.1711536 0.14366287 0.14609194 0.077520125 0.18831478
0.04039893 -0.005655941 0.0022437705 0.055395085 0.14550005 0.19651183 0.15342417 0.17015655
0.08119965 0.08746325 0.125295 0.13805103 0.00094887614 -0.014621795 0.053177483 0.021272318
0.03867523 0.07800434 0.06028296 0.07389233 0.11760248 0.11031472 0.05521152 0.14314252
0.11346164 0.055551995 0.14422148 0.07907153 0.1512823 0.12685649 0.1981571 0.1907414
0.15747352 0.19241288 0.09084448 0.18972342 -0.015881523 0.11599932 0.15685457 -0.02686907
0.16701217 0.022718487 0.13308002 0.1295269 0.091338284 -0.019724134 0.18068969 0.0067522754
0.021583581 0.018265279 0.1490777 0.0015451096 0.13917264 0.06299993 0.13234979 0.1285923
0.10426978 0.114236936 0.062360667 0.14156304 0.05600505 0.12351161 -0.033252396 0.05212654

net.3.weight f4 [128, 256]
00000000: 3774 6cbc 2b86 003d 4e31 8ebd ca11 253d
00000010: 07c5 63bb c766 bf3d c201 02bd 42a9 623d
00000020: fd66 06be 305b 0b3d 9c46 04be 4f38 9b3d
00000030: 9716 bd3d 0ffc d6bd c225 91bd 2c20 893c
00000040: e533 09be bbae e03d 793b 55bd fa60 7fbd
00000050: c6e3 4a3d 3844 a83d 07cd 0fbe 34db b33d
00000060: 96f6 073e 244f 7ebd 35ae 9a3d bcd7 b1bd
00000070: 17d3 fa3c 7745 21bd b013 aa3d d5e4 a83c
00000080: 01f2 0e3e 90f9 be3d e0d2 5c3d ad46 03be
00000090: 2027 8a3d 3f36 b0bd 42e7 613d 2464 973d
000000a0: 6a17 03be ded4 adbd 779c bdbc c02c 063e
000000b0: dff3 1d3e ac55 02bd 9661 0a3e 00fb 543d
000000c0: 5c4c 48bd 9bf8 d63d fc68 f53d 11c3 d73d
000000d0: b03b d5bc 31c0 193e 310f 66bd 9885 323c
000000e0: a91a 2c3c 9911 b1bc 9fba a2bd 0799 95bd
000000f0: 4425 ca3b 6e72 8cbd 2be7 c73d bd49 6ebd
00000100: 77a4 173d 912a 95bd 257c 41bd d259 9cbd
00000110: 43b5 28bc 4262 293d 63aa 09be 2d70 a23d
00000120: 68bf 4d3c fad5 b1bd 39c1 913d 2399 b1bd
00000130: 8838 843d 77f5 be3d 8ea9 8f3d 763b 1fbd
00000140: afa0 103e 122b b13d 1136 e03d bbdf 133d
00000150: 9e6e 45bd ad8c 39bd 35a9 f9bd 6575 153e
00000160: dad5 a6bd 3941 4f3c da99 afbd 42b2 e43d
00000170: a0d2 f33d 8e4b 7f3d aab2 1f3d f65e cd3d
00000180: 1bb5 f03d 1463 043e c5cc cb3d e114 c8bd
00000190: 960e d5bd 0f28 333d ba1d dabc 6720 943d
000001a0: 6da5 ebbc 0b6a 5fbd 2e00 943d 3627 fe3d
000001b0: 4cd0 a53d 9768 a73d ab74 153e 3315 533d
000001c0: 3d0a fb3d be5e 8b3d 0c71 ddbc f25e 723d
000001d0: e951 f53d 1d71 0e3d 7569 0d3e 6b1c fabb
000001e0: 5000 dfbd 9e4d 743d 1bb9 76bc 58ac 10bd
000001f0: 981d bcbd 5e19 d93c 3503 bd3c 4f2b ec3d
00000200: 5758 d43d 5815 ff3d 1e48 243d b81a bbbc
00000210: fa45 763d a0bf d9bd 330e e13c cd85 0c3e
00000220: 3248 b63d dd4e c3bd 136a ec3d 85b4 183b
00000230: a25d e2bc 8371 56bd 800e 6fbc d677 cc3d
00000240: a7f4 0f3e 50cb 13be 305a 1bbe ba8a 793c
00000250: 304d 7f3d 03ec 32bd 797f cfbd 2649 c4bd
00000260: 2a72 bfbd b619 89bd a7c6 f83d 5b7f bb3b
00000270: fd06 ae3c 88a2 0e3d 2f35 1dbd 4611 0a3e
00000280: 0bea 8dbc 5f21 633d 769d eb3c d8cf 10bd
00000290: da7a 043d 3491 b7bd 799d 68bc 902d c03d
000002a0: 25e7 633c ecc7 06be b2e7 bd3d 25a8 4fbd
000002b0: eaef 683c f63a dd3d 4a6d af3d 849a f83d
000002c0: 9da8 fe3d 7525 ce3d 96a4 193e 1a84 1bbe
000002d0: 91ad 863c 51d4 09be 1945 123e a9d8 fe3d
000002e0: 814b 923d 281d ab3d 257a 203d 1ec4 b5bc
000002f0: e4cc 223e 2947 b23d 54d9 943b 80ab 19bd
00000300: 6e66 123d b1e8 a13d 2d6a 21be 772f 82bd
00000310: dae1 a73d 77f6 d93c a663 3d3d 12fd 5c3d
00000320: f15b aabd 7187 d63c 7c11 01bd 9d03 c63d
00000330: a225 d13d 7cae 9d3d ccf0 5d3d e7b1 bb3d
00000340: 58b9 36bd 7552 ebbd 80e7 eb3d 8e17 153c
00000350: e70d 983d 313e 94bd 851a 41bd b7eb ed3d
00000360: aa2f bc3d caeb 01be 512e 9d3d 88f4 01be
00000370: 1101 b6bc 4d78 acbc 22d3 a2bd 02b7 153e
00000380: 58fa 0f3d b926 a8bc 2769 0ebc d662 4cbc
00000390: fa33 05be d893 f7bd 975b 0bbe 06d5 72bd
000003a0: 1434 033e 0f07 4b3d 8b27 c7bd 4c33 183e
000003b0: 0523 9e3d fb32 873d aaec fc3d 45c3 cf3d
000003c0: 28fb 5f3d e63c 9f3d f16f 16bd bd17 c93d
000003d0: 757d e73c 30af acbb 42b9 5e3d 0d7d 013e
000003e0: 32d9 263d e393 c2bd 95ce be3d 2d41 673d
000003f0: 3b64 dfbb 01d7 e23d 5982 093e b39e d4bd
-0.014432005 0.031377953 -0.06942998 0.040300168 -0.0034754889 0.09345775 -0.031739958 0.055337198
-0.13125224 0.03402251 -0.1291756 0.075790994 0.09232824 -0.10497295 -0.0708728 0.016738974
-0.13398702 0.10970827 -0.05205867 -0.062348343 0.049533628 0.08216137 -0.14043055 0.08782044
0.13277659 -0.062087193 0.075527586 -0.08683726 0.030618234 -0.039372887 0.08304536 0.020616928
0.13959505 0.09324944 0.053912044 -0.1281993 0.06745744 -0.086040966 0.055152185 0.07392147
-0.128019 -0.08487867 -0.023145897 0.13103008 0.1542506 -0.031819984 0.13513789 0.051997185
-0.048900947 0.104966365 0.11982915 0.10535253 -0.026029438 0.15014721 -0.05616683 0.010896109
0.010504403 -0.021614837 -0.079457514 -0.07304578 0.006168993 -0.06857763 0.09760889 -0.05817579
0.03702208 -0.072835095 -0.047237534 -0.07634319 -0.010297122 0.04135347 -0.13443904 0.07931552
0.012557842 -0.08683391 0.071169324 -0.08671787 0.06456095 0.093241625 0.07014762 -0.038875066
0.14123796 0.08650793 0.10947812 0.036102038 -0.048201196 -0.045300175 -0.12190477 0.14595564
-0.08146258 0.012649828 -0.08574267 0.111668125 0.11905408 0.062327914 0.038988747 0.10027878
0.11753293 0.1292842 0.09951166 -0.09769607 -0.10403173 0.043739375 -0.026625503 0.07232743
-0.028765405 -0.05454449 0.07226597 0.12409823 0.0809637 0.08174246 0.14595287 0.05153389
0.12257812 0.0680518 -0.027031444 0.05917258 0.11978514 0.034775842 0.1380976 -0.007632782
-0.108887315 0.059644334 -0.015058781 -0.03532061 -0.09185332 0.026501354 0.023072818 0.11531698
0.10368412 0.12455243 0.04010784 -0.022839889 0.06012533 -0.10632253 0.027472591 0.13722916
0.08900489 -0.09536526 0.115436696 0.0023300957 -0.027632538 -0.052354347 -0.014590859 0.099837944
0.14058171 -0.14433026 -0.15171123 0.015230829 0.06232947 -0.04368211 -0.10131735 -0.095842645
-0.09347947 -0.06694357 0.12147265 0.005721969 0.021243567 0.03482297 -0.038380798 0.13483152
-0.017323514 0.055451747 0.028761607 -0.035354465 0.032343723 -0.08963242 -0.014197701 0.0938369
0.01391009 -0.13162202 0.09272708 -0.050697464 0.014217356 0.108022615 0.08565767 0.121388465
0.12434504 0.10065738 0.15004191 -0.15187111 0.016440185 -0.13459899 0.14284171 0.124436684
0.071433075 0.083551705 0.039178986 -0.022188243 0.15898472 0.08704979 0.004542509 -0.03751707
0.035742216 0.079057105 -0.15763159 -0.063567095 0.08197375 0.026606781 0.04623761 0.053952284
-0.08318318 0.02618763 -0.031510815 0.09668658 0.10212256 0.07699296 0.05418472 0.091647916
-0.04461035 -0.11490337 0.115187645 0.009099854 0.07424527 -0.072384246 -0.04714443 0.11617225
0.09188779 -0.12687603 0.0767485 -0.12690938 -0.022217305 -0.021053458 -0.07950427 0.14620593
0.035150856 -0.020526277 -0.008692062 -0.012474736 -0.13008109 -0.12088746 -0.13609158 -0.059285186
0.12812835 0.04956728 -0.09724339 0.14863318 0.07721523 0.06601521 0.123498276 0.101446666
0.05468288 0.07775287 -0.03672785 0.09818981 0.028258065 -0.0052699074 0.054375894 0.1264536
0.040734477 -0.095008634 0.09316746 0.05645864 -0.0068173683 0.11076165 0.1342863 -0.10381832

net.3.bias f4 [128]
00000000: f98e d23d 816d ee3d 40b4 c43b 8396 e53c
00000010: ef93 a73c 9a88 5d3d b5dc 283d 7809 b13d
00000020: e02c bf3d 5af5 153c 5b77 d5bb fd35 923d
00000030: 9a68 8b3d 8bf9 ac3d 9e04 893c bb25 a53d
00000040: f29f d03d 703b 0d3d b35a 9a3c 5590 ac3d
00000050: d69a 063d 67c6 5c3d 759d ef3c b2f7 763d
00000060: 7f9b f13d 5769 9a3d 7954 303d 8f6d c93b
00000070: 0d7e e4bb 2aa3 573d d325 6a3d 0deb 233d
00000080: 4aee a0b9 a369 733d c2e7 a33d 2af5 b63c
00000090: 0a26 753d 5765 cd3d 9326 883d 0702 893d
000000a0: 3adc 93ba b461 c03d 74b8 513d 9cca 823d
000000b0: 5938 203d 154e e73d 9f07 acbc b524 943d
000000c0: b541 d93a 2329 c23d fa9e 913a 4785 2d3d
000000d0: 640a b43c a319 983d aee6 933d 18c6 d33d
000000e0: fe66 c9ba a0f9 00bc f645 6d3d a50e d43d
000000f0: 8284 813d 874e 493d 158f 743d 93f6 1d3d
00000100: 4802 503d 496e 5d3c 9f15 4f3d d1e1 923d
00000110: 42ae e93d 72b9 923d b8b6 633c b0d6 b83d
00000120: d5b7 9f3c ead6 a1bb 5459 0abd c43b 2b3d
00000130: fc14 9abc 2f1a d23d 04e4 f93c efe6 dc3d
00000140: a0a9 303d 1dd4 a93d 04c5 a03d 8b13 f6b9
00000150: 9d76 f83d 634b 953c 0b9a af3d e7b9 123d
00000160: bd35 ef3d 0b09 333d 0bac 3a3d 71d6 073b
00000170: 5666 463d b260 fd3c 0a90 e43d d06a 883d
00000180: 0261 183d 973a 73bc 2313 803d a65b e53d
00000190: 827f e63c 7bb7 d13d 50b5 d33d e2f9 343d
000001a0: c459 943d 2c3d 903b d1a6 4d3c 530d 003c
000001b0: f576 1d3d d3b6 403d 5383 eb3d 99e8 daba
000001c0: 4aa6 3b3b 38ca 933d dcf2 f83d ffd7 a13d
000001d0: 95a5 973c c360 123d df63 bf3d cc02 b23c
000001e0: 41eb e73d 33b4 393d d8f9 16bd c6af e03d
000001f0: 41e8 1f3d c441 143d fd0f c23d 15cd 893d
0.10281176 0.1164198 0.006002933 0.028025871 0.020456282 0.05408535 0.041226108 0.08644384
0.09334731 0.009152735 -0.0065144724 0.07139204 0.068070605 0.08446034 0.016725834 0.08063837
0.10186757 0.034480512 0.018842077 0.08425967 0.032862507 0.05390015 0.029249886 0.060294814
0.11797237 0.07539623 0.04304931 0.0061470936 -0.0069730342 0.05264584 0.05716498 0.040019084
-0.00030695117 0.059426915 0.08003189 0.0223337 0.05985073 0.10029095 0.066479824 0.0668984
-0.0011280843 0.093936354 0.0512013 0.06386301 0.039116237 0.1129419 -0.020999728 0.07233564
0.0016575368 0.094805025 0.0011110001 0.04236343 0.02197761 0.07426765 0.07221733 0.10340518
-0.0015365777 -0.007872015 0.057928048 0.10354356 0.06324102 0.049147155 0.059706766 0.03856523
0.050783426 0.013515064 0.05055773 0.07171977 0.1141019 0.07164277 0.013898544 0.090253234
0.019496838 -0.00493895 -0.033776596 0.041805044 -0.018808834 0.102589004 0.030504234 0.107862346
0.043130517 0.082924105 0.07850078 -0.00046935337 0.12131999 0.018224424 0.08574303 0.03582182
0.11680172 0.043709796 0.04557423 0.0020727182 0.04843744 0.030929897 0.11160286 0.06660998
0.03720189 -0.014845512 0.0625365 0.11199121 0.028136972 0.10240074 0.10337317 0.04418362
0.07243684 0.0044018235 0.012551979 0.007815677 0.038443524 0.047049355 0.114996575 -0.00167014
0.0028633052 0.072163045 0.12155697 0.07902526 0.018511573 0.03573681 0.09345221 0.02172985
0.11324168 0.045337867 -0.036859363 0.10971026 0.039039854 0.03619553 0.09475706 0.067285694

net.6.weight f4 [64, 128]
00000000: 0ef0 1cbe c371 6cbd f43f a7bb 0a59 e8bd
00000010: 845e d2bd 7d8e 22be 3dc6 363c e549 e13d
00000020: 0056 393d dc6a ef3d 3eb4 0c3d 1172 683d
00000030: 5876 1d3e 0097 e63a bd3c 283e 97da 063d
00000040: 9366 0e3d 6558 8c3d 4df5 c6bc c0f5 11be
00000050: eef7 2d3e b32a 48bc b764 9cbd 052f 053d
00000060: 29db b93d 425f 813c 2e81 ea3d 3a1b ef3d
00000070: 9b7a 8cbc 4c98 c1bd 9b8d d5bd b015 24bd
00000080: 1517 cbbc 6173 203e 7a82 92bd d097 1e3d
00000090: b2ca 693d c873 85bd 4fe9 00be 5f83 13be
000000a0: 4a6b dabc 45e4 15be b63a 3a3d ea39 7e3d
000000b0: 9b5e 6c3c f9a8 033e b020 15be 3407 bb3d
000000c0: 16b7 8dbd 15ef 683c 0c25 0bbe ab8b 87bd
000000d0: aadb 093e 60df 9bbd b5db 243e d33e 03bd
000000e0: 24e5 213c 0ae8 44bd 3693 f9bc e09b 9a3d
000000f0: 1305 ed3d 9191 cc3c 93ae b83d 4f92 fbbd
00000100: 995d 223e d6e1 b03c e46e 6e3d 5c48 963d
00000110: be8d 1d3e 2694 4abd e156 2fbe f9a0 043d
00000120: 532a e63d 8780 a13b 179f 6ebd 200c 0c3e
00000130: 8783 cd3d ebb9 153e b277 ae3d 4b09 973c
00000140: 72f3 0abd 870b febd 8d93 b63d 7414 e13d
00000150: 360a e7bd b38e d43b 18d4 233e 87ec 063e
00000160: bd51 173e db2c 9f3c 8ac6 a93d a8eb 70bd
00000170: 8bf9 fb3d fbca 10bd da99 393e e3b8 d2bd
00000180: daf7 f6bd 9921 6b3d 4173 9a3d d0df 00be
00000190: d427 873d 12ce 003e 36a4 9f3d 747b dfbd
000001a0: 8eea 133e a837 31be c738 25bd 5845 f4bc
000001b0: afef 71bc 68f9 083e 6bc8 0b3e 4d95 843b
000001c0: bd52 29be aeb2 353d 034c 41bd bd89 05be
000001d0: 6a00 f23d 9d0f b9bd 4566 f7bc 33c1 823d
000001e0: 6430 f43c 0049 953d 2894 3f3d 4768 ed3d
000001f0: cb66 4cbc 0433 83bd f853 dabc 971e 213e
00000200: 27ad 933c 47d2 d73d 8738 513c 294f a93d
00000210: 7c31 12be 9ddc f13a 7c34 b5bc f3be 863d
00000220: 12a2 bdbd 3485 adbb 0324 0d3c e0ae 413d
00000230: f80b 3b3d ca2f 3d3d e1dc 433d ff72 bc3d
00000240: 69ee 36bd fe7b 303d 526d 0b3e 87f1 873d
00000250: 885f 52bd d6c6 353e 2d5a 473d ff8e 423b
00000260: 2542 973d 1327 05be a39a 7c3b d56b 5f3c
00000270: bb6d 103d 5f20 873d 5262 0f3d 60a9 a0bc
00000280: 0d50 993d e39a ffbc cb4d 81bd 08bb 1a3e
00000290: 750b 8e3d 6c9c ea3d 55f8 483d cce2 4f3d
000002a0: 2183 2dbe d53e 0d3e fb58 fabd 3914 663d
000002b0: 3e48 2d3d 8edd 7fbd b2a0 05be 5d40 88bd
000002c0: 1492 133e 6042 d2bd 8414 e83d 24fb da3d
000002d0: 17d9 0f3c cac6 1fbc ba75 8fbd cee6 adbc
000002e0: 975f a6bd ed34 d63c 7b1b 0c3e be26 4ebd
000002f0: 9e6a 9c3d 6ac3 a43d bd69 133e c773 253e
00000300: 74be 9a3d 1c96 87bd f813 993d f4d9 503c
00000310: bc10 eebd 37b0 b8bd 0ff6 273e 577d 4b3d
00000320: dd33 16be 12af ff3d fa3a e8bc be0c 18be
00000330: 8bba 283e fd59 b7bd e7e0 89bd 5429 6cbd
00000340: 9d40 8dbd b291 833d a255 95bd 18e0 0f3e
00000350: 4a45 7fbd b035 1a3e 0509 a33d 0d65 b93d
00000360: a72d 9c3d 3884 5d3c 6a8c 5abd df03 6f3c
00000370: f3d7 9abd 5710 0d3e 31c7 9a3c 1140 3fbd
00000380: 364e f6bd 7376 c5bd dcaa 8a3d 0485 77bb
00000390: f4d9 0fbd 514a e4bd 2d33 73bd f7a2 04bd
000003a0: 770e 0cbd 55ad cd3d c59c 3d3c 368d cd3d
000003b0: 9516 14be 3dd9 e83d db4a 12be 9cc2 4fbd
000003c0: 07ef 1b3e c00e 1d3d a94f 82bc d112 2e3d
000003d0: 77fe 273e 040e 9ebd 0210 cfbd 9ce5 4b3c
000003e0: a05c 0cbc 9d34 ed3c 9506 b63d b4a8 c53c
000003f0: 3cdd e73d b09d 9dbc 4352 383c 08c7 ffbc
-0.15325949 -0.05772568 -0.0051040594 -0.11345108 -0.10271934 -0.15874667 0.011155662 0.110004224
0.04524803 0.11690304 0.03435158 0.056749407 0.15377176 0.0017592609 0.1642942 0.032923307
0.03476579 0.068527974 -0.02428689 -0.14253902 0.16989109 -0.012217212 -0.07636397 0.032515544
0.090750046 0.015792493 0.1145042 0.11675115 -0.017148307 -0.094528764 -0.104274 -0.040059745
-0.02479128 0.15669014 -0.07153793 0.038719 0.05707807 -0.06516224 -0.12589 -0.14405583
-0.026662488 -0.14637859 0.045466147 0.06206695 0.014426853 0.12857427 -0.1456325 0.09132233
-0.069196865 0.014217158 -0.13588351 -0.066184364 0.13462701 -0.07610965 0.16099437 -0.032042336
0.009881292 -0.048072852 -0.030465703 0.07549262 0.115732335 0.024971755 0.090176724 -0.122837655
0.15856017 0.021592062 0.058211222 0.0733802 0.15386102 -0.04945769 -0.17122985 0.032380078
0.112385415 0.0049286517 -0.05825719 0.136765 0.100348525 0.14621703 0.08518924 0.018437048
-0.033923574 -0.124045424 0.08914862 0.10990229 -0.112812445 0.0064867376 0.15998876 0.13176166
0.14777274 0.019430568 0.082898214 -0.05881849 0.12303456 -0.035349827 0.18125096 -0.102891706
-0.12058993 0.057405088 0.07541514 -0.12585378 0.065993935 0.1257861 0.077949926 -0.10912219
0.14444944 -0.17306387 -0.04033735 -0.029818222 -0.014766618 0.13376391 0.13650672 0.0040461184
-0.16535468 0.044359855 -0.04719163 -0.13040824 0.11816485 -0.09036181 -0.030200133 0.06384506
0.02980823 0.07289314 0.046772152 0.11592155 -0.01247568 -0.06406215 -0.026651368 0.15734325
0.018026901 0.10538154 0.012769825 0.08267052 -0.1427669 0.0018452589 -0.022119753 0.065793894
-0.09259428 -0.00529542 0.008614543 0.047285914 0.04566571 0.046188153 0.04781807 0.09201621
-0.04466096 0.043087 0.13615921 0.066378646 -0.051360637 0.17751631 0.048669983 0.0029687283
0.07385663 -0.13003187 0.003854432 0.013636549 0.035260897 0.06597971 0.035005875 -0.019612014
0.074859716 -0.031201785 -0.06313666 0.1511041 0.06935779 0.11455616 0.049064953 0.0507534
-0.16944553 0.137935 -0.12224003 0.05617163 0.042305224 -0.06246715 -0.13049582 -0.06652901
0.14411193 -0.10266566 0.11332038 0.106924325 0.008779786 -0.009751985 -0.070048764 -0.02122822
-0.08123701 0.026148284 0.13682358 -0.050329916 0.07637523 0.08045085 0.14395805 0.16157447
0.07555857 -0.06620428 0.07474512 0.012747277 -0.116242856 -0.09017985 0.16402458 0.04968008
-0.14668222 0.12484564 -0.028348435 -0.14848611 0.1647741 -0.08952711 -0.0673235 -0.0576566
-0.0689709 0.064242736 -0.07291724 0.14050329 -0.06232194 0.15059543 0.07960705 0.09052477
0.07625895 0.013520293 -0.053356566 0.014588325 -0.0756072 0.13775764 0.01889381 -0.046691958
-0.12026636 -0.09641733 0.0677087 -0.0037768492 -0.035119966 -0.11146987 -0.059374977 -0.032381978
-0.034193482 0.10042826 0.011573021 0.100366995 -0.1446174 0.1136956 -0.14286368 -0.050722703
0.152279 0.038344145 -0.015907126 0.042498413 0.16405664 -0.07717517 -0.10110475 0.01244488
-0.008567005 0.028955752 0.08887974 0.024128295 0.11321494 -0.01924023 0.0112500815 -0.031222835

net.6.bias f4 [64]
00000000: ba23 b5bb 1bcf 3bbd 4f89 bb3c 13b8 19bc
00000010: 656e 023d 174a 10bd a4cd 0abd 8823 993b
00000020: a268 db3d 18af f83d 4b14 f4bd 2b7d 05bc
00000030: 016c 7abd bb0f 42bd 6120 cd3a 09e8 8c3d
00000040: 2c16 473d 0152 313c 0848 ba3b c504 efbc
00000050: 7a93 643c 53d9 103d 12b5 8f3d 1f7f 0ebd
00000060: 6003 2e3c ff6a 013e bdd7 e6bc 3200 04bd
00000070: 5fed fa3c a21a e1bc e614 593d 10af 0f3d
00000080: b11f 96bd 056c 933d 1562 a83d 6bc5 22bd
00000090: d835 443d 46a7 8f3d 739e 0fbd 1de3 f93d
000000a0: 9c32 873d 147c c23d 69e0 d03d 1d32 34bd
000000b0: f754 a43d fc9e e23d c8e0 ec3d 8b69 7b3d
000000c0: 25a8 ed3d 30fc f8bc f1c5 793d f203 b33d
000000d0: 5978 023e dcbe 333d db79 f23d afb9 9c3c
000000e0: e3da b63d 2f82 33bb 5b33 793d 806d 993d
000000f0: 0557 de3d a840 e3bc b638 b43d d082 b3bd
-0.0055279406 -0.045851808 0.022892622 -0.009382266 0.03184356 -0.035226908 -0.03388752 0.004673425
0.107133165 0.121427715 -0.11917933 -0.008147518 -0.061138157 -0.047378283 0.0015649908 0.06880195
0.04860513 0.010822774 0.0056848563 -0.029177079 0.013951177 0.035363507 0.07016958 -0.0347892
0.010620922 0.12638472 -0.028179044 -0.03222675 0.030630765 -0.02747852 0.052998446 0.035079062
-0.073302634 0.071983375 0.08221833 -0.039739054 0.047902912 0.07014327 -0.03506322 0.122015215
0.0660145 0.09496322 0.10199053 -0.043993104 0.08024018 0.1106548 0.11566311 0.06137995
0.11604337 -0.03039369 0.060979787 0.08740987 0.12741221 0.04388319 0.11839648 0.01913151
0.08928468 -0.0027390828 0.060839992 0.074915886 0.108564414 -0.027740791 0.08799879 -0.08765185

net.9.weight f4 [41, 64]
00000000: 160a d3bd 15be e33d 89b5 033e 0996 193e
00000010: 2385 14be 1c24 d23d 947e 16be 6790 073e
00000020: 65d5 f43d 890c de3d c061 9b3d 5966 5abd
00000030: 55ec 86bd 6521 fbbc 9bc9 d4bd b38c 3a3e
00000040: a663 10be bc5a 543c 2624 c43d 93cf 3cbe
00000050: e44d 4cbe 1d30 9dbd f813 20be 6a40 e53b
00000060: 7aea 46be 39b8 203e fe86 1abc d554 8fbd
00000070: 4b53 3bbe 1975 9e3d 8548 bb3d c7c1 383d
00000080: 4a73 18be b5b3 35bd c4b8 213e 53e0 5ebd
00000090: 4cda cdbc 48e5 50be f71a 3cbe 9f74 ad3d
000000a0: 5ebd 1dbd 4075 323d cc85 af3d b6f2 b03c
000000b0: d78c 4fbe fc58 3b3e 976d 2ebe f923 0b3e
000000c0: c940 b4bd f23c 973c e2be 043e 05b3 b43c
000000d0: c95b b53d 4475 5abe ec8a 51be 036b 813d
000000e0: 35e1 32be 5db1 823d 3659 fb3d a4ac 24bd
000000f0: f06a 483e d277 c63d fedd 10bd 3fa5 03be
00000100: 8666 283e 2a56 e6bd ebc8 84bd cd8d 1cbe
00000110: f935 d33d cef7 89bd d2fa 723d 120a 0b3d
00000120: 9260 3abd f3aa 323e 91ba 86bd 4e38 debd
00000130: fd8a 2abe 5bf6 23be ea1d 533d 66c2 1cbe
00000140: a303 b7bd df17 2fbe 13db 223e 082a a03d
00000150: b8f0 f2bd c319 3b3e 1627 6abd 1268 1fbe
00000160: b079 673d dac0 26be c6c8 25bd b5bc 8e3b
00000170: 7a32 e6bc 275a 313d a062 31be cb5e 213e
00000180: c7b8 9f3d 4a99 58be 75c7 46be c0d3 22be
00000190: 9e35 393e 5589 013d 9629 06bd 1bd8 49be
000001a0: 9db9 6abd 6c9e a4bd ef50 d7bd e32e abbd
000001b0: 86a9 743d 7d42 18be 3efd 263e f512 f03d
000001c0: 7a36 4cbe fbfa fbbd e0ff 01be 62cf 823d
000001d0: 39c8 373e 46b1 88bd 5a06 35be 6c80 5fbd
000001e0: 4ffa 8b3d 1d3a b33d 3d71 d4bd fbfc 52be
000001f0: 205e 24be 7e33 35be b899 333e 5fef f13d
00000200: 8bcb 443c 5d67 37be 664b 26be 0a8d 7c3d
00000210: 8679 d1bd aeb3 49be 93c4 113c 7ead a63b
00000220: 149e fabc 6944 9f3d 1c89 c6bb fc9a 02be
00000230: fbf6 23be f495 cf3d 3d8e f33c 6047 ebbd
00000240: 4928 38be 78c8 0ebe af14 6abe a14f fe3d
00000250: 2d86 50be 96bf efbd 0935 12bd 19c0 3d3e
00000260: 5fbe 37be bc5f 563e f07c 75bd b3f5 22be
00000270: e952 a33d 176a 713b 0ddd 263e 3950 a03d
00000280: dee3 0b3e 68f5 8cbd 7cbd 35bd 8117 273d
00000290: 4c7f 0bbe 36e9 473e b53a 9b3d ce04 3e3e
000002a0: a6a7 293d 0205 303e e60e 33be 2e39 8e3d
000002b0: b633 52be 86c0 30be b312 0d3d 6eea 98bc
000002c0: 510e 40be 35d7 bfbd 8d2a 02be 91d9 91bc
000002d0: c3ff 51be 6e68 c5bb ad0f 4a3e 2855 aa3b
000002e0: 7586 39bd 2e17 1d3e 5d37 583d 3f4c a1bb
000002f0: 041b aabd b45b 1e3e 7504 ed3d d82c 59be
00000300: 51fb 8ebd 9a32 413d c521 d73d f6e1 3ebe
00000310: d039 3abe fcad 80bd 8147 3ebe dadd ce3d
00000320: ea84 4bbe b04a 123d fe47 33be 3954 2f3e
00000330: 0238 e33d 2d23 bebd 302f b23d 901e 053e
00000340: 358b a5bb f291 c23d 788c 313e 6404 e53c
00000350: 9b40 053d 2117 e3bd 2c73 49bd b42a ab3a
00000360: 2cc3 493c bc2b 3abe 198a f23d dfa9 0a3e
00000370: 11a0 1abc 4a49 863d cc41 ef3a 53be 883a
00000380: 94db b53c 6ad0 053e 2a77 f03c f7cf 003e
00000390: bed8 ec3b 0fd5 f43d 69db 43be 282d c1bc
000003a0: 6451 5fbd 0381 00be 73df a6bd a1f4 b8bd
000003b0: 062b 5ebe 327a ea3d 2eb3 3abe b98c b33d
000003c0: 1023 22be 80b0 3b3d 75cd cb3d fc53 f43d
000003d0: 6577 133c d39f 63bd 0344 84bd cc9b 9e3d
000003e0: f1f4 483d 21f7 59be 2a9c 873d c792 9cbd
000003f0: 98fe 873d a181 cb3d 41d2 d4bc 519c 1bbd
-0.10304658 0.1112024 0.12862219 0.1499864 -0.14503913 0.102607936 -0.14696723 0.13238679
0.11954764 0.10842235 0.07587004 -0.053320263 -0.065880455 -0.030655572 -0.10390016 0.18217735
-0.14100513 0.012961086 0.09577207 -0.18438558 -0.19951588 -0.076751925 -0.15632617 0.006996204
-0.19425383 0.15695275 -0.009431599 -0.06998602 -0.18293492 0.07737178 0.091446914 0.045106675
-0.1488773 -0.044360835 0.15793139 -0.05441315 -0.025128506 -0.20399964 -0.18369661 0.08469509
-0.038510673 0.04356885 0.085704416 0.021600109 -0.2026857 0.18295664 -0.17033993 0.13587941
-0.08801419 0.018461678 0.12963441 0.02205802 0.08855397 -0.21333796 -0.2046315 0.06319239
-0.17468722 0.063814856 0.12272875 -0.040203705 0.19572043 0.09690823 -0.03536796 -0.12856005
0.1644536 -0.11246903 -0.064836346 -0.15288468 0.10313029 -0.06736718 0.059321232 0.03394515
-0.045502253 0.17448024 -0.065785535 -0.10850583 -0.16654582 -0.16011946 0.0515422 -0.15308532
-0.089362405 -0.1709895 0.15903883 0.07820517 -0.1186232 0.18271546 -0.05716618 -0.15567043
0.056512535 -0.16284505 -0.040474676 0.0043559917 -0.028100241 0.043298867 -0.17322779 0.15758817
0.07798915 -0.21152225 -0.19412024 -0.15901089 0.1808686 0.03162511 -0.032754503 -0.19711344
-0.05730592 -0.08038029 -0.10513484 -0.08358552 0.059731983 -0.14869113 0.16307542 0.11722366
-0.19942656 -0.1230373 -0.12695265 0.063872114 0.17947473 -0.06674437 -0.17678204 -0.054565832
0.06834852 0.087513186 -0.10373161 -0.20604317 -0.16051531 -0.17695424 0.17539108 0.118132345
0.012011419 -0.17910524 -0.162397 0.061657943 -0.10228257 -0.19697449 0.008896965 0.0050866
-0.030592956 0.0777672 -0.006058825 -0.12754434 -0.16012184 0.10136023 0.02973091 -0.11488223
-0.17984118 -0.1394366 -0.22859453 0.12417532 -0.20363684 -0.11706464 -0.03569511 0.1853031
-0.17943715 0.20934957 -0.059933603 -0.1591404 0.07974798 0.0036836916 0.16295262 0.07827801
0.13661143 -0.06882745 -0.04437016 0.0407939 -0.13622779 0.19522557 0.07579557 0.1855652
0.041419648 0.1718941 -0.17486152 0.069445 -0.20527539 -0.17260942 0.03444166 -0.018666472
-0.18755461 -0.09367219 -0.12711544 -0.017803939 -0.20507722 -0.006024412 0.19732542 0.0051981397
-0.045294244 0.15340874 0.052787174 -0.0049224193 -0.08305934 0.1546467 0.11573116 -0.21208513
-0.069815286 0.047167398 0.10504488 -0.18640885 -0.18186116 -0.06283185 -0.18581964 0.101009086
-0.19874921 0.03571576 -0.17507932 0.17121972 0.11094667 -0.09284053 0.087004066 0.1299994
-0.005051995 0.09500493 0.17338741 0.027956195 0.032532316 -0.11088396 -0.049182102 0.0013058991
0.012314599 -0.18180746 0.11842746 0.13541363 -0.009437577 0.065569475 0.0018253862 0.0010432698
0.02219943 0.13067785 0.029353697 0.12579332 0.007227986 0.119547 -0.19126667 -0.023581102
-0.05452098 -0.12549214 -0.08148088 -0.09031034 -0.216961 0.11449088 -0.18232414 0.08767075
-0.15833688 0.04582262 0.09951297 0.11930081 0.009000634 -0.055572342 -0.06458285 0.0774456
0.04906172 -0.21285678 0.06621583 -0.07645183 0.06640357 0.09936834 -0.025979163 -0.03799087

net.9.bias f4 [41]
00000000: d192 a53d c495 c53c e395 ea3d c8fc 203e
00000010: 4080 24bb 5f99 86bd f37a 7bbd 1e10 c0bd
00000020: 5237 9ebd f90a 7b3d 9a63 2c3c ffb2 18be
00000030: 8d22 4cbd 674d 283c 8768 d2bd 2faa 12bd
00000040: 5507 fcbc e64b ffbc fb58 38bc 504a 61bd
00000050: 3c0e 6c3d 3ad4 fbbd 708f f5bd 7ab8 d43d
00000060: e51c 9e3d 4047 e7bd 99d9 47bc b73b 4fbd
00000070: 0660 b9bd 7f1f d5bd 23aa 223d a7c3 e7bd
00000080: 31a5 8ebb a144 09bd 105d 4dbc e053 42bd
00000090: af07 c5bd 8f13 55bd 0154 13bd 689c 393d
000000a0: 88c3 c23b
0.08084644 0.024119265 0.1145437 0.15721428 -0.0025100857 -0.06572222 -0.06139655 -0.09378074
-0.07725395 0.06128976 0.010521794 -0.14912032 -0.049837638 0.01027236 -0.10273843 -0.03580683
-0.030765215 -0.03116412 -0.011251683 -0.05500251 0.057630762 -0.122963384 -0.11990249 0.103867486
0.07720355 -0.11292887 -0.012197875 -0.050594058 -0.09051518 -0.10406398 0.039713036 -0.113166146
-0.0043531884 -0.033512715 -0.012534395 -0.04744327 -0.09620606 -0.052020606 -0.035968784 0.045315176
0.0059437193
