src/pythonModel/disease_model.pth (torch, 253729 bytes, 8 tensors)

net.0.weight f4 [256, 72]
00000000: d847 2d3e 71e1 ce3d 3e4d 0f3e d54e e23d
00000010: 9384 8c3d 4147 22be c4d1 82bd 51ac 3b3e
00000020: 2367 0abe 4ebb 413e f3e3 4c3e 90dc cdbc
00000030: 4ec3 f939 f338 f3bd 575e 45be 1db2 883c
00000040: eb76 213d ae40 2dbe 1b04 01be f63a 103d
00000050: 216d 803d 697a 2fbe 3f0d 0dbe 6946 583c
00000060: 37f4 d0bd 07c0 223d 739c 1d3e 1f51 1abd
00000070: 3bb3 f53d f67b fdbd 1730 27be d572 48be
00000080: b3fb db3d 9229 f93c 2838 25be 2bf9 233e
00000090: 5ea4 a7bd 2293 fbbd 6077 28be ee93 cabd
000000a0: ddec 97bd 37a3 feba 02bc 593d dcf7 7abb
000000b0: b958 5cbe d929 2b3e 7778 fc3d 6994 253c
000000c0: 4da5 ddbd 2ffe 493e ee34 7cbd 7dae 6e3d
000000d0: 2616 503d c452 97bd 3540 ddbd db42 d6bd
000000e0: 7df6 f1bc 696b 0e3e c3e1 fabd 1d63 973d
000000f0: 17d6 2bbe 21e2 123e e366 34bd dac9 d33d
00000100: ea00 3cba 5df2 283e c000 763d cab9 223e
00000110: 52a9 b83d 6211 c5bd 61dd fbbd 80a6 d03d
00000120: 5feb 4fbd ef5d 473e db41 e93d 9eb6 1bbd
00000130: e577 423e 421a c53d e891 0ebe 4b97 233e
00000140: 0ad3 32ba 6096 03bd f893 0bbe 60b9 9dbb
00000150: 3888 323e 85a7 72bd e409 b0bd d946 243e
00000160: 6d7d 18bb 69bb 38bb d768 ebbd 130a 0ebe
00000170: 5536 803c d29f 0e3d 6b6e 043d bf5d 463e
00000180: 6e11 893d 05a4 d4bd bd8f 163b 0bb9 3a3e
00000190: 3670 e4bb bef2 5cbe d7e7 19be c656 fe3d
000001a0: d07d 533d e2a0 4cbd 2b47 a2bc 2409 13bd
000001b0: 3597 6a3d 8e45 1b3d a488 bdbd 2481 383d
000001c0: 24ef 553d 3373 4d3e 5f1b 42be ed4f 86bd
000001d0: c23c fe3d b818 23bd e170 41bd 71c7 c23d
000001e0: 5dc7 f9bd 09e5 0d3e f143 3ebd b36f cebd
000001f0: 2655 163e 317b b7bc d015 5e3c 71df 423e
00000200: 8e4d 2d3e 1012 23be ae52 373e a4aa 5bbe
00000210: b939 493d 1bd7 ef3b 4666 393e 6cd9 d7bd
00000220: 8052 19be e900 8e3d a895 4abd d953 9c3d
00000230: f6e7 433e f465 c0bd 3f98 47be 9df3 0dbe
00000240: dd3d 553e 5968 e7bd dc05 2abe 295c 0f3e
00000250: f43d 81bd 030c 973d 7670 b33d 5300 c93d
00000260: e035 2b3e fcaf 043e f2ba 943d 589b 6fbd
00000270: f279 c1bd 1f90 1dbe 4c6c 1b3e 8dc0 e83d
00000280: fdee 003e 42c8 b7bd 2f86 cdbd ff9c 14be
00000290: d26b cfbc b798 363e 2cb9 573d b3ed 063e
000002a0: fb83 bdbc a1a5 5dbc ae91 f1bb a053 423d
000002b0: ecd1 a5bc 79e7 9b3b 28e5 1bbe dcc2 37bd
000002c0: 893f 5c3d 554e 1cbe b621 20bd 60ff 18be
000002d0: 90aa bebd 7e7e a3bd c3fb 383e ac6b 9e3b
000002e0: 6655 d7bd 0e49 513e cab5 d93b b0ba aabc
000002f0: c0c1 bc3d 6bbd c4bd fed7 a13c 0e90 0f3e
00000300: da14 e9bd 9cf8 9f3c 2e47 e53d f5f3 a43d
00000310: 8688 e1bc 7e88 cfbc 4096 473c 4e3c 353e
00000320: c594 373d e480 8abd 1a70 973d 1830 183e
00000330: 39a9 3c3e 7a80 643d e7b2 aa3d 95c5 31bd
00000340: 76f0 193e f2f0 6bbd 50df b4bd d384 a93d
00000350: 7488 f5bd bae0 8a3d f659 cd3c 9b64 c13d
00000360: c7c3 88bd fa9f 243b ee32 a9bd 46a0 98bd
00000370: d3ee 283d 71b3 473e 7d9e b6bd 339e 6bbd
00000380: 2d62 f5bd 7565 383e de7a 9ebb acc2 2d3e
00000390: 200f 033e 792f fd3d 4a8b cdbb 6c3d c6bd
000003a0: d3bb e53c 2a60 00be 9f81 293e 8871 36bd
000003b0: 50cb c5bb 17bb 203d b2e8 f439 129d 26be
000003c0: 28ba 8e3d 9031 84bd ceca 61bd a371 4d3e
000003d0: 8b74 2e3c 83c2 4cbe 10e0 343c 2b8d d03d
000003e0: cbd2 d53c 53e4 493e 1c59 91bd 6c95 1dbe
000003f0: 3477 cbbd b48d 44bc 2667 f9bd 1ac1 6fbd
0.16921937 0.10101593 0.1399431 0.11050192 0.06861224 -0.15847494 -0.06387666 0.18327452
-0.13515906 0.18919107 0.2000883 -0.025129586 0.00047638494 -0.118760966 -0.19274269 0.016686494
0.03942005 -0.16919205 -0.12599222 0.03521248 0.06270815 -0.1713654 -0.13774584 0.013200381
-0.1020283 0.039733913 0.15391712 -0.03767502 0.11997076 -0.12377159 -0.16326939 -0.19575055
0.10741367 0.03041533 -0.16134703 0.16013019 -0.081856474 -0.12283923 -0.16451788 -0.098914966
-0.07418225 -0.0019427304 0.053157814 -0.0038294708 -0.2151822 0.16715182 0.12327664 0.0101061845
-0.10822544 0.1972587 -0.061573915 0.058271874 0.050802372 -0.07388833 -0.10803262 -0.104619704
-0.02953648 0.13908161 -0.12250092 0.07391951 -0.16780888 0.14344074 -0.044043433 0.103412345
-0.0007171767 0.16498704 0.06005931 0.15891185 0.0901667 -0.09622456 -0.12298084 0.10188007
-0.050761577 0.19469427 0.11389514 -0.038015954 0.18991049 0.09624149 -0.13922846 0.15975682
-0.00068216084 -0.03212583 -0.13630664 -0.004813358 0.17434776 -0.05924179 -0.085956365 0.16042651
-0.002326812 -0.0028187877 -0.11494606 -0.1387103 0.015650908 0.034820385 0.032331865 0.19371699
0.066927776 -0.10382847 0.0022973858 0.18234651 -0.0069713844 -0.21576974 -0.15029846 0.124188945
0.051633656 -0.049958117 -0.019809326 -0.03589739 0.05727311 0.03790813 -0.09254578 0.045045033
0.052230015 0.20063476 -0.18955754 -0.065582134 0.124139324 -0.039818496 -0.04722679 0.09510697
-0.12196229 0.13856901 -0.046451513 -0.10079899 0.14680919 -0.02239761 0.013555005 0.19030549
0.16924116 -0.15924859 0.17902634 -0.21451813 0.049127314 0.0073193437 0.1810542 -0.10539517
-0.14972878 0.06933767 -0.04945913 0.0763318 0.19131455 -0.09394446 -0.19491671 -0.13862462
0.2082438 -0.112991996 -0.16603798 0.14 -0.06310645 0.07375338 0.087616846 0.09814515
0.1671977 0.12957758 0.072622195 -0.058497757 -0.09447087 -0.15387009 0.1517803 0.11364851
0.12591167 -0.08973743 -0.10035359 -0.14513014 -0.025319967 0.17831694 0.052666828 0.13176613
-0.023134222 -0.013528259 -0.0073721027 0.047443032 -0.0202417 0.0047578183 -0.15224135 -0.044863567
0.05377153 -0.15264256 -0.03909465 -0.14941168 -0.09309876 -0.07983111 0.1806479 0.004834613
-0.10514335 0.20438024 0.0066439854 -0.020840973 0.092166424 -0.09606441 0.019756313 0.14019796
-0.1138093 0.019527726 0.11195217 0.080543436 -0.02753092 -0.02533364 0.0121818185 0.17698786
0.044819612 -0.06762865 0.073944286 0.14862096 0.18423928 0.055786587 0.08334904 -0.04340132
0.15033135 -0.05760283 -0.08831656 0.08277287 -0.11988917 0.067811444 0.02506731 0.09443017
-0.066779666 0.0025119768 -0.08261667 -0.07452445 0.041243386 0.19502045 -0.08916948 -0.057523917
-0.11981616 0.18007453 -0.0048364243 0.16968793 0.12798738 0.1236257 -0.006272708 -0.09679684
0.028043663 -0.12536684 0.16553353 -0.044541866 -0.0060361996 0.039240923 0.00046712678 -0.16270855
0.069691 -0.06454766 -0.05512505 0.2006288 0.010647903 -0.19996075 0.011039749 0.10183176
0.02610149 0.19716005 -0.070970744 -0.15389031 -0.099348456 -0.011996675 -0.12177877 -0.058533765

net.0.bias f4 [256]
00000000: 997c 093e a683 2f3e 520d 473e bb13 163d
00000010: e2b9 263e 7b29 343e 53fb aa3b c9e4 253e
00000020: 5c2c 4b3e 9f72 233e 9855 763c 3230 1a3d
00000030: 3da3 bf3d ea58 f53d 1824 253e a336 b83d
00000040: fb26 0e3e 39e4 013e 4e1c 543d c025 f43c
00000050: 4cee 1ebc cf73 b43c 38da 8e3c 90d8 103d
00000060: aea1 6d3d a9bb ad3d f4f7 dd3c 090e 233b
00000070: bea5 033e bc4e 273c 59eb 043e a092 ca3c
00000080: 4703 233d b42b 2fbc 5c46 f03d 550f 4ebb
00000090: 2dde da3d 8f4d b83d c0e2 2e3e dade ae3d
000000a0: cb8e 223e a7ca 453e f222 d43d 4a97 2abb
000000b0: e254 883c 28f8 9e3c c882 073e 0589 563d
000000c0: 374f 033e fa61 093e ea93 f03b 04e7 0c3e
000000d0: 12c8 df3c 3ab6 163e b5c4 c53c a917 fb3d
000000e0: 47c4 1f3e d3c2 413e 5d33 353d ad1c 203e
000000f0: f0f1 e03b a78b 2b3e 731b 223e cbd0 ae3d
00000100: 005a 643d 0b29 5f3d fd06 f53d f405 e03d
00000110: 5f7a 0d3d c1dd 33bb df3c be3d 8283 583c
00000120: 941a 9a3b 15f9 903c c621 353e 8993 3b3e
00000130: 4b33 f53c 0d22 213e c91c 463e c443 e9bc
00000140: d36a 1a3e 5afc 1ebc fcf3 c13c ac15 473d
00000150: e5a5 d13d 125d b33d 9eb3 f63d 0bed 0c3e
00000160: 063c e73d 7557 f73d e172 14bd d6c1 c33d
00000170: 36be 473e e3e1 363e 5ea7 1d3e f273 913b
00000180: ddc6 3b3e 2cda 893d a21a 0e3e e2d9 4ebb
00000190: 47ed 653d 2734 9d3d 34b8 813d 8897 ab3d
000001a0: 1f53 283e 8a87 b83d df23 ce3d 89cd 35bc
000001b0: e935 3a3e 1bd2 22bb 28b5 153e 8ca7 213e
000001c0: efbf 293d 037d b23d 4ada 9f3d 3277 e63d
000001d0: 58cf 0fbd 762a 353e 3ee1 73ba e2b8 b53c
000001e0: 83fe fe3d 1f96 0a3c b185 323e 89a5 c4bc
000001f0: 810d 3e3e 65e2 693d 9cc9 09bc 170b 08bb
00000200: 0ec2 c13d edb8 cf3c c98f 3d3e 386b 043e
00000210: ea73 323e 2827 3a3e ef47 d33d 25c4 0d3e
00000220: 98a7 ffbc 0f70 ca3d 957a 743d a95e 7a3d
00000230: 4ed0 653c d47e 083e 0432 64bc fa5c d13d
00000240: 070d 543b b9b7 b13d 24ff 983d ac9c 0bbd
00000250: aead 25bc f376 af3b 6153 b43d 81f5 473e
00000260: ed93 1a3d 1e04 873c 1689 a73d 0a4f fb3d
00000270: 92aa c43d da06 05bd 30db d4bc 29b1 9f3c
00000280: c620 8d3d 0eb3 183e 71f5 6e3d 4745 ebbc
00000290: 29cc 8c3c a238 d23c 021c 273c 4d79 143e
000002a0: 150c 093e b752 383e be04 053e 948b 33bc
000002b0: 9a8e b9ba 50ae 3c3e b74e 873d e5a3 1e3d
000002c0: a54e dd3d 2cc4 ac3d 8644 1a3e ae62 c93d
000002d0: 9eee c73d f0b1 473e 21e8 383e 1ec3 3c3e
000002e0: 0bb3 003d be2e 8b3d 1843 d63c 40fd 2f3d
000002f0: b7ea 1f3d 96f3 94bc 0c20 b83d b48d 173e
00000300: c9fa bb3c c0c5 093e 1dc3 a13c 078a e63d
00000310: 798e 143e 7cf5 ed3d f564 cd3d 4513 b13d
00000320: b9dd 933d 7708 793c 3695 053e 2eb8 163e
00000330: c8eb 8c3d 79b8 ba3d 1756 0e3e 4fbb 8e3d
00000340: 78e0 323e 7062 a83d bca1 21bd 2a2d 0d3e
00000350: 8244 c93c 8d15 13bc 6065 bd3d c500 1f3e
00000360: 5f7a 8a3d 4acd 8fbc ab7f b13d 1ab9 003e
00000370: aa0d 3a3e a5dd 033e 9184 223e 1db6 0f3c
00000380: b5c6 2b3e 3974 223e 2f82 a63d c489 153e
00000390: 9ea3 30bb 949d 5abc f190 1a3e 743f 9b3d
000003a0: ecad dbbb 0520 31bd 55ae 6b3c 1465 953c
000003b0: 643e 113e dde2 bb3d 6742 ce3d f56c 3abd
000003c0: 0d24 d33d 40c6 3a3e b536 843d 203d d93d
000003d0: ac50 a83c eb75 e13d a737 7e3c 49dc a4bc
000003e0: eac8 8c3d 7354 bc3c 0e10 ff3d 5d3b 833c
000003f0: ee19 213e d7ca d63d 57d6 0e3d 1163 273d
0.13426436 0.17140064 0.19438675 0.03663991 0.16281846 0.17593949 0.0052179485 0.16200556
0.1984114 0.15961693 0.015035056 0.03764362 0.09357307 0.1197985 0.1612705 0.08994796
0.13882057 0.12684716 0.051784806 0.029803157 -0.009700369 0.022027878 0.01743804 0.03536278
0.058015518 0.08483059 0.027095772 0.0024880192 0.12856194 0.010211643 0.12980403 0.02472812
0.039798047 -0.010691572 0.1173217 -0.0031442244 0.10686908 0.08999168 0.17078686 0.08538599
0.15874784 0.19315587 0.10358228 -0.0026030117 0.016642038 0.01940544 0.13233483 0.052376766
0.12823187 0.13416281 0.0073418515 0.1376 0.02731708 0.14717951 0.024141649 0.12260372
0.15602218 0.18921976 0.044238437 0.15635939 0.0068647787 0.16752492 0.15830784 0.08535918
0.055749893 0.0544825 0.119642235 0.109386355 0.03454053 -0.0027445408 0.09288954 0.013214948
0.0047028754 0.017696897 0.17688665 0.18317999 0.029931685 0.15735646 0.19346918 -0.028474696
0.15079813 -0.00970372 0.023675911 0.048604652 0.1023672 0.08757986 0.12045978 0.137623
0.112907454 0.12077228 -0.03624237 0.09558456 0.19506153 0.17859606 0.15395877 0.0044388706
0.18337579 0.06731066 0.13877347 -0.0031562974 0.05613449 0.07675963 0.06333962 0.08378512
0.16437958 0.09010227 0.100654356 -0.011096367 0.18184628 -0.002484447 0.14619887 0.1578657
0.041442808 0.0871525 0.07805307 0.112532035 -0.035109848 0.17691979 -0.0009303278 0.022182886
0.12450888 0.008458643 0.17433812 -0.024004715 0.18559839 0.057100672 -0.008409884 -0.0020758563
0.09460841 0.025356734 0.18511881 0.12931526 0.1742703 0.18179 0.103164546 0.13844354
-0.031207845 0.09884655 0.059687216 0.06112543 0.0140267145 0.13329631 -0.01392794 0.10222812
0.0032356398 0.086776204 0.07470539 -0.03408496 -0.010112209 0.005354756 0.08804966 0.19527246
0.03773873 0.016481455 0.08180444 0.12270935 0.09602846 -0.032477237 -0.025983423 0.019493656
0.06891017 0.14912054 0.05833954 -0.028719557 0.017187195 0.02566177 0.010199549 0.14499398
0.13383515 0.18000303 0.1299009 -0.010958571 -0.0014156878 0.1842587 0.066068105 0.03873052
0.10806016 0.08435854 0.15065202 0.09833275 0.097623095 0.19501472 0.180573 0.18433806
0.03142075 0.06796025 0.02615504 0.042966127 0.0390422 -0.018182557 0.089904875 0.14800149
0.022946732 0.13454342 0.019746358 0.112567954 0.14507474 0.11619088 0.10029022 0.086462535
0.072200246 0.015199772 0.130452 0.14718696 0.06880909 0.091172166 0.13900028 0.0696932
0.1746844 0.082219005 -0.039460883 0.1378676 0.0245688 -0.008977306 0.09247851 0.15527637
0.06761622 -0.017553944 0.08666929 0.1257061 0.18169275 0.1287752 0.15870883 0.0087714465
0.1677502 0.15864648 0.08130299 0.14603335 -0.0026952992 -0.013343234 0.15094353 0.07580462
-0.0067040827 -0.043243427 0.014384826 0.018236674 0.14183956 0.0917413 0.10071259 -0.045514066
0.103096105 0.18239689 0.06455747 0.10607362 0.02054628 0.11008819 0.015516198 -0.020124571
0.06874259 0.022989487 0.12454234 0.016019518 0.15732548 0.104879074 0.03487238 0.04086596

net.3.weight f4 [128, 256]
00000000: 6555 00be 12ff 33bd 7695 9f3d 58ed f13d
00000010: 5e60 adbd 2b28 ff3d 1dc4 bebd 345f 51bb
00000020: a880 58bc cb78 9cbd dbb6 b63d f3b5 033d
00000030: 33fc c63d 0533 de3c 7edc eb3d 3057 c23d
00000040: 6a6b 193d f9ef 82bd d0cf cc3d beec 013e
00000050: aa73 f93d f9b7 bdbd 535f 92bd 2936 5d3d
00000060: 417d 62bc 32c6 153d cfcf 81bd 08be f93d
00000070: 8108 a8bd 07f6 753b 7f8b 0b3e a737 ecbd
00000080: 5c2c 803d f20a 55bd a505 03be 38c2 8ebd
00000090: 14c7 3b3d 12fb bc3d 80e5 213d 3678 26be
000000a0: c78d e83c edc7 083e 6159 f63d e35b 19bd
000000b0: c41f 623c 7108 f03d 5743 083e 6af2 193d
000000c0: 036d 2a3d 519f 75bd f4ba 063e df26 103e
000000d0: 0004 223e 501d 80bd 4964 9a3d fb0f 143e
000000e0: 3b98 97bd faa3 d6bc d676 c9bd a290 09bd
000000f0: cda3 32ba f880 db3d 5186 fa3d 4f81 cb3d
00000100: 54ae 80bd c680 a3bd 727c fbbd 8fe7 963d
00000110: 575f 0f3d 1cfe 223e 0c5e bfbd 2bcd c63d
00000120: bafb d83d 805a 003e 2b09 1e3e 27f4 013d
00000130: 4ee3 8cbc e571 ba3d bbc0 f73d 6673 99bd
00000140: 6a0d db3d 7da2 233d 0174 503c f6df cb3d
00000150: d3ef 93bd 2995 b23d f87d cfbd dfcb d43d
00000160: d1d8 84ba 63e3 d43d dec9 3fbd 0774 513d
00000170: b24b 023d b1a0 df3c d974 4a3d 688d 193e
00000180: 0ec3 053e 31bb 383d 8c01 493d 9edd 81bd
00000190: cb0e cabd d002 073e 9ba4 203e 4549 b5bd
000001a0: 8a70 c03c 0ee6 623d dcd2 003e 8b20 923d
000001b0: f28f 0f3e bf4a a8bc a4df 763d be96 283e
000001c0: 6da4 4dbd 3d55 f1bd 8e94 d23d 3d84 143e
000001d0: db89 c93d 9caf 993d 597a f73d 58f8 0fbe
000001e0: 130e 94bd ec03 b7bd 0e90 48ba cf3b 2fbd
000001f0: 132a 853d fd5c abbd 36d0 cbbd 3191 253e
00000200: 5cf6 5ebd cd2b a33c 80cf a53d c9cb 063e
00000210: 2733 a3bc 2f27 3cbd 789a 8f3d 7a16 bb3d
00000220: 59ef 2ebd 1214 313d f17a 163e 2558 af3d
00000230: b316 aebd ec78 67bd 4088 8bbd 4407 ce3d
00000240: 29f7 dd3d 941e 1c3d 7d68 dc3d b82e 0fbe
00000250: 09a3 0ebe f348 c63d 7e55 733d 0d15 fe3d
00000260: c919 82bd 4236 4bbd 2c6c b1bc 8fe8 c63d
00000270: adfc bdbd 976b 45bc 1626 14be 5f39 eb3b
00000280: 153d 713a cb36 f53c 73f0 e5bd ad28 d43d
00000290: 9512 1ebe b5e4 01be 1f79 17bd 6a5d 243d
000002a0: 117a 9abd 99af 0f3e efb2 8c3c b3a4 16be
000002b0: fbb4 c73d 57a2 0a3d e815 ac3c 8a83 4bbd
000002c0: a57b 243e f3a6 993d e59c 5b3d 052e 243e
000002d0: 2f04 293d 74f4 8fbd 1f9d 8abd 70c3 c43c
000002e0: 89e7 063e e383 643d a405 73bd 7fd5 2b3d
000002f0: 9e97 b5bd 8a14 a4bd 18f0 213a 1893 d1bd
00000300: 2652 d0bd 7754 f13c dc80 f13d a5c5 b9bd
00000310: 962a 99bd 0c87 693c 31ac 64bc 0a57 833d
00000320: dd64 fbbc 621e 16be 7adb b03d 7d39 c3bc
00000330: 5122 4d3d 5795 663d c981 ba3d 98c8 e63d
00000340: d88a ef3d 9a08 b2bd f1b1 493d 043a 0d3e
00000350: c2ff dabd e5d9 07bd 435f c83d b51b ba3d
00000360: 792f 5b3d e024 d5bb d270 2cbd d678 f3bd
00000370: 62ff 853d 8f9d 013c 0e57 00be 9142 0dbe
00000380: a8e9 013d acee 583d 416a 953d 1220 f63d
00000390: bfda cabd 23b3 55bd 01e8 e03d 9813 87bd
000003a0: fdc0 fdbd 98d2 173e bdaa 923d 6608 123d
000003b0: a319 093e e01d 04be 9761 d5bd 8399 f3bc
000003c0: e90e ea3c c542 e3bc 3675 04bd cf2f 593d
000003d0: c30d ca3d b527 fb3d a640 03be 5a53 5b3d
000003e0: baee 08bd a264 b1bd ac64 1bbe 015a 103e
000003f0: 1d03 043d 736d 2fbd 9f64 bbbc 5490 d8bd
-0.12532575 -0.043944426 0.07792179 0.11812848 -0.08465646 0.12458833 -0.093147494 -0.0031947615
-0.013214268 -0.07640227 0.08921596 0.032155942 0.09716072 0.027123937 0.11516665 0.09489286
0.037455954 -0.063934274 0.100005746 0.12687966 0.12180264 -0.092636056 -0.07147088 0.05400673
-0.013823808 0.036565967 -0.063384645 0.12194449 -0.08204747 0.0037530677 0.13627432 -0.11534052
0.06258461 -0.05201239 -0.12795122 -0.06970638 0.045844153 0.09227575 0.03952551 -0.16256794
0.028387917 0.13357516 0.120287664 -0.037441146 0.013801519 0.1172036 0.13306938 0.0375847
0.041607868 -0.05996639 0.13157254 0.14077328 0.15821838 -0.06255591 0.07538659 0.14459221
-0.074020825 -0.026201237 -0.09837119 -0.0335852 -0.00068145694 0.10717958 0.1223265 0.09936773
-0.062832505 -0.07983546 -0.122795954 0.07368385 0.035003033 0.15917248 -0.0934411 0.097071014
0.10594888 0.12534523 0.15433185 0.031726982 -0.017198231 0.09103755 0.12097307 -0.07492714
0.10695918 0.039949883 0.01272297 0.099548265 -0.07223477 0.08719856 -0.101314485 0.10390448
-0.0010135417 0.10394933 -0.046823375 0.051136043 0.03181047 0.027298303 0.04942784 0.14995348
0.13062689 0.045100395 0.04907374 -0.06341098 -0.09866103 0.13184667 0.15687792 -0.08851866
0.023491163 0.05539518 0.12580436 0.07135113 0.14019755 -0.020543454 0.060271874 0.16463754
-0.050205637 -0.11783836 0.10282241 0.1450357 0.09840747 0.07504198 0.12083883 -0.1405958
-0.07229247 -0.08936295 -0.00076508604 -0.042781647 0.06502166 -0.083673455 -0.099518225 0.16168667
-0.054434165 0.019918347 0.08096218 0.13163675 -0.019921852 -0.045935806 0.070118845 0.091351464
-0.04270873 0.04323203 0.14695336 0.08561734 -0.08500423 -0.056511804 -0.06813097 0.100599796
0.10838158 0.0381151 0.10762117 -0.13982666 -0.1392938 0.09681883 0.059407704 0.12406359
-0.063525744 -0.04961229 -0.021658026 0.09712326 -0.0927671 -0.012049577 -0.14467654 0.00717847
0.00092025223 0.029933354 -0.11227503 0.10359321 -0.15436776 -0.12684901 -0.036980744 0.04012815
-0.075428136 0.14031829 0.017175166 -0.14711265 0.09751316 0.033846226 0.02100654 -0.049685992
0.16062792 0.07502546 0.053616423 0.1603318 0.041263755 -0.070290476 -0.0676825 0.024018973
0.13174261 0.05578984 -0.05933155 0.041951653 -0.08866809 -0.0801173 0.00061774394 -0.10233134
-0.101719186 0.029459221 0.11792156 -0.09070901 -0.07478826 0.014253389 -0.013957069 0.06413086
-0.030687744 -0.14660028 0.08635612 -0.023831123 0.050081555 0.056294765 0.09106786 0.11268729
0.11696404 -0.08693047 0.049241964 0.13791662 -0.10693313 -0.033166785 0.09783795 0.09087316
0.05351207 -0.00650464 -0.04209978 -0.11888282 0.06542851 0.0079111 -0.12533209 -0.13794924
0.031716973 0.05296199 0.07295657 0.12017836 -0.09905004 -0.05217279 0.10981751 -0.06595534
-0.12390325 0.14826429 0.07161472 0.03565254 0.13388686 -0.12902021 -0.104190044 -0.029736286
0.028571563 -0.0277418 -0.032338344 0.05302411 0.09865906 0.12263433 -0.1281763 0.053546287
-0.033430792 -0.08661772 -0.15175122 0.14096834 0.03222953 -0.04282899 -0.022875128 -0.105744034

net.3.bias f4 [128]
00000000: e580 773d c439 b03d f13e 533c 4909 0a3c
00000010: c983 d43d 9c92 cc3d 738e cebc a5f9 ff3d
00000020: 81b0 ffbc 8181 5d3d 3bb0 483d 6756 713d
00000030: c481 423d a4bc 4b3d 33d2 3f3d a384 ee3d
00000040: 34b6 5c3c e7b2 97bc c2ad 2b3d 3233 723d
00000050: e2a8 b13b de1b 063e 3316 b13d eaf4 c63d
00000060: 03e9 b73d 3349 f7bb 8d14 a43d 4a39 e13d
00000070: b969 9fbc 58d9 933d a499 f13b 80e0 6c3b
00000080: 1e61 d23d cc25 aa3d 5b71 a13c a06b ca3d
00000090: 33ef 603d 177c 013d b43f ea3d e7d3 003e
000000a0: 0450 df3d a331 2f3d 83b1 c43d 0df0 3e3d
000000b0: b0e1 e13d 8c2a f73d 65a9 94bb b46d 123d
000000c0: 32b6 073d 077a 343d b4ee 113d 6108 433c
000000d0: 71a8 963d 74a4 c53d ceea d1bc 8164 b73d
000000e0: db7f 8d3d 468d 0b3d 2b67 ab3d 4751 333d
000000f0: 67f1 11bc 72fd 053e 929e 803d e729 983d
00000100: ced2 c83d 0050 e53d f6d0 9f3d 981a 4d3d
00000110: 7ec6 d43d 5e1e 4b3d 9c42 ad3d 1c20 c53d
00000120: 8ca2 b23d 2a39 3a3d 0777 2b3d b1c2 bd3d
00000130: f955 ac3d dd09 433d bd15 7a3d 0cb5 193d
00000140: a9b1 3d3d bf6a 5a3d f7ca f23d 26b3 9e3c
00000150: 5d3e a23b 860f b03d 3160 e93d d7c2 e03d
00000160: 71b3 773d 5c93 823d 7ee3 d53c 4974 cb3c
00000170: 7763 cd3d 58d5 873d 31a5 dc3d 31fc 3e3d
00000180: ea0c 0a3c cfdb 0e3d bd3a 8f3c 352e 513c
00000190: 6a98 7d3d b978 f43d 5f13 2f3d 8245 263d
000001a0: f314 d23d 3873 cb3d 422a b43d dc7f 483d
000001b0: 8888 b23d 6074 863c 8d92 6d3d 6873 813d
000001c0: 0e8b 313d 4bc2 ae3d bafb 053d f785 913d
000001d0: 2109 5b3d 85e4 843c f8fa 9d3c ca91 89bb
000001e0: 7a7a 513d e73d 943d 3af5 833d 446a 003d
000001f0: 96fe 913c 5693 ad3d ec2e 503c 7602 c73c
0.060425658 0.08604768 0.012893424 0.008425065 0.103766985 0.09988901 -0.02521441 0.12498788
-0.031212093 0.054078583 0.04899619 0.05892029 0.047487035 0.04974045 0.04683132 0.11646392
0.013471175 -0.018517924 0.041913755 0.059130855 0.0054217437 0.13096568 0.08646812 0.097146824
0.0897999 -0.007546568 0.08011732 0.10997255 -0.019459592 0.072191894 0.0073730517 0.0036144555
0.1027243 0.083079904 0.019707372 0.09883809 0.05491562 0.031612482 0.11437932 0.12580834
0.10903934 0.042771947 0.0960417 0.04661565 0.110293746 0.12068662 -0.004536795 0.035749152
0.03313274 0.044061687 0.035628036 0.011903853 0.073563464 0.096505076 -0.025624659 0.089547165
0.06909152 0.034070276 0.08369287 0.043778684 -0.008907652 0.13084963 0.06280245 0.07429867
0.09805833 0.111968994 0.07803528 0.05007419 0.10389422 0.049589507 0.0845997 0.09625265
0.087224096 0.045464672 0.04186156 0.0926565 0.084148355 0.04761683 0.061055887 0.037526175
0.046312008 0.053324457 0.11855119 0.019372534 0.004951282 0.08596711 0.113953 0.10974663
0.060473863 0.06375763 0.026109453 0.024835723 0.10028737 0.06632489 0.10773695 0.046627227
0.0084259305 0.034877595 0.017484063 0.012767364 0.06191293 0.119370885 0.042743083 0.04059363
0.10257902 0.099340856 0.087971225 0.04895006 0.087174475 0.016412914 0.05800109 0.0632084
0.043345504 0.08533152 0.03271077 0.0710563 0.053475503 0.016222248 0.01928471 -0.0041982876
0.051142193 0.072383694 0.06443258 0.031351343 0.017821591 0.08475368 0.0127065 0.024293166

net.6.weight f4 [64, 128]
00000000: 6c9e c73c 9220 833d cdd3 eebd 5e42 ee3d
00000010: 499a 9a3d 18c5 0b3e dd26 0ebe c94e 023d
00000020: abc6 393c 33e9 adbd 9c66 0dbe a28c 5dbd
00000030: efd3 643b 4cde 18bd 1886 2d3e 6997 95bc
00000040: ca4b 023e be47 38bc 2359 10be 6adc 223e
00000050: 5c0c 26be 9441 473c 20f1 3a3e 4b89 3ebe
00000060: 5edd 353e d0a9 6bbd 420e ff3d c0dc 1dbe
00000070: bad9 123e da8b 033e 42ed 69bd f555 1abe
00000080: 3a29 c73d bfef 7bbd ae2d 02be 7728 963d
00000090: df13 04be f2d7 753c f9b2 c43d 3074 11be
000000a0: 274c 183e ff9c 163d 8b58 23bb 3576 3fbe
000000b0: acd9 01bd bea1 eb3d 6385 d93d d17c bc3d
000000c0: 262a 0a3e a6a5 2e3e 4c66 0d3e 9161 62bd
000000d0: ca3b 243d 3c09 883d 18a3 d9bd 9f0d a23d
000000e0: 1177 c6bd 8223 1e3e 09c9 3e3d d827 b03c
000000f0: bff7 ecbd e8c5 013e 4513 053e 2efb 1e3e
00000100: 035d 1c3e 25b6 af3c 47c2 42bc aff4 d33d
00000110: 1fcc f83d 96f9 153c 2f4c 1cbe 03c5 d23d
00000120: 6e79 2ebd d1fa 413e 024f 26be 7682 633d
00000130: 14e3 0e3d 49a4 1ebd f3dc c83d c893 673d
00000140: d2fc f8bc 0468 15be 00ab 0d3e b7c0 633d
00000150: 25cb 01be aeb4 73bd e046 f7bc ab8f f4bd
00000160: 6181 f73d 7db0 0a3e ce38 31be 40ef 513d
00000170: 2c04 c8bd d36c 133e 34ef cfbc e225 2e3e
00000180: bc66 afbc 77ac 153e 00c7 4abb e800 b83d
00000190: ded9 65bd 9e2a f5bd 69e1 a13c c9cd c6bc
000001a0: f000 5bbd ee0f 0d3e 23b8 323e 366c 0fbe
000001b0: c346 b2bd 6a2e 833d 185b eabd 5ca2 cc3d
000001c0: 75f5 90bd 42b7 bd3d 9648 0ebe 17c9 0f3e
000001d0: a5a6 3bbe d06e 52bd a5aa a3bd de18 c43b
000001e0: d347 bc3d 52ef a83d fda4 e1bd fd0e 1bbe
000001f0: 92af cbbd 1295 993c 153f 0abe 462c d03d
00000200: b580 2b3e fc70 0b3e 4aeb 40bd cb19 033e
00000210: 7187 1fbd 4203 b43d 9ee2 34bc e057 2e3e
00000220: 86ee 14bd 70d3 833d d71a 283e d2e2 32be
00000230: 543e 903d 82a8 013e 8d7e 013e 3009 933d
00000240: 59b4 b5bd 0d8f c03d 170e b73d 33a8 fc3a
00000250: fc32 f13c 41b5 7bbd 3a88 fc3d 6de9 aa3c
00000260: 58a1 493d b4ef 0e3e c68c 72bd 1020 17bd
00000270: d7df 0cbe d058 f1bd a6fc 29be fba8 c4bd
00000280: 7f4c c6bc 4613 a1bd 5ab4 0bbe 3ff9 20bc
00000290: 5999 c8bd acd1 08bc 02ac 123d 38c1 ce3d
000002a0: dea1 883c f502 e7bd dcd6 043d aefb f1bc
000002b0: e91d 2e3e 3043 563d 6bc4 0abe 1717 a63c
000002c0: 4971 2c3e 55c4 293d 64af 21be 5e08 6f3d
000002d0: 020f 21bd 1c54 803c c7f6 ae3c 9362 bcbd
000002e0: 69ba 103d 2af3 053e fb83 a13d a94c 25bd
000002f0: ba1e acbd 180f b4bd ed83 da3d 17f3 093e
00000300: 059e 873c 5d70 943d 161d 243e 48db be3c
00000310: df49 a53c af07 1dbd aa67 8fbd c137 febb
00000320: 2c4f 00bd 9646 e5bc 7f98 adbd ebb0 973d
00000330: 15f1 cd3c c8b1 243d 88e9 783d 135b 073e
00000340: 5616 d53d 5984 2abe bba6 8c3d d8f4 1cbc
00000350: 5e68 20be 2b25 8c3d 0484 8dbd 9da3 af3d
00000360: bd20 b13d 88df 0b3e 32cb 093e 02e9 503d
00000370: 0006 133e 622e 163e 7401 de3d 0dc2 d73c
00000380: 19a1 b93d f10e 13be 46fa de3d 3d4a 7b3c
00000390: abeb eabd fe95 09be 62ca 2c3d 010b be3d
000003a0: 9897 85bd 5590 8cbd d57d 6abd 019a c6bd
000003b0: ebcc 2c3e 185d 26bd 3125 febc 3f41 273e
000003c0: e2fb 2cbd 3ead 37be eb07 6a3d 4ea5 b03d
000003d0: 7ab5 a03d 625a 27be 1ba1 c53d 9d1c b3bd
000003e0: f6a5 70bc 2e84 c3bd 6b78 093d b02e 4fbd
000003f0: a0e3 7dbd c465 9f3d f3ea e0bd 8a22 b7bd
0.024367534 0.06402697 -0.116614915 0.11633752 0.07548959 0.13649404 -0.13882013 0.031813417
0.01133887 -0.08491745 -0.13808674 -0.054089196 0.0034916361 -0.037321374 0.16945684 -0.018260675
0.12724224 -0.011247573 -0.14096503 0.15904394 -0.16215652 0.012161631 0.18256044 -0.1860706
0.17760226 -0.057534993 0.12453891 -0.1541624 0.14340869 0.12846318 -0.057111032 -0.15071853
0.0972466 -0.061507937 -0.12712738 0.07331937 -0.12898205 0.015005099 0.09604449 -0.14204478
0.148728 0.036770817 -0.0024924602 -0.18697436 -0.03170173 0.11505459 0.106211446 0.09203494
0.13492641 0.17055377 0.13808554 -0.055268828 0.04009608 0.06642386 -0.10626811 0.07912754
-0.09690679 0.15443233 0.04657844 0.021503374 -0.11570691 0.12673151 0.12995632 0.15525505
0.15269856 0.021449158 -0.01188714 0.10349404 0.12148308 0.009153744 -0.15263437 0.10291483
-0.042596273 0.18943335 -0.16241077 0.05554434 0.034884527 -0.038730893 0.09807768 0.05653742
-0.030393992 -0.1459046 0.13834763 0.05560371 -0.1267515 -0.05949848 -0.030185163 -0.11941465
0.12085224 0.13543887 -0.17306826 0.051253557 -0.09766421 0.14396982 -0.025382616 0.17006639
-0.021411292 0.14616571 -0.0030941367 0.08984548 -0.056115977 -0.11971019 0.019760804 -0.024268048
-0.05346769 0.13775608 0.17453055 -0.14006123 -0.08704903 0.06405337 -0.11443156 0.09991905
-0.07078067 0.09263469 -0.13894877 0.14041553 -0.18325289 -0.05137521 -0.07991532 0.0059844097
0.09193387 0.08248772 -0.11017797 -0.15142436 -0.09945597 0.01874784 -0.13500626 0.101646945
0.16748317 0.13617319 -0.04709939 0.12802808 -0.038947526 0.08789684 -0.011040358 0.17025709
-0.036360286 0.06436813 0.16416489 -0.17469338 0.07043138 0.12661937 0.12645932 0.07179487
-0.08872289 0.09402285 0.08938234 0.0019276201 0.029443257 -0.061452154 0.12330671 0.02086326
0.049226135 0.13958627 -0.059216283 -0.03689581 -0.13757263 -0.11784518 -0.16600284 -0.09602543
-0.024206398 -0.07865004 -0.13643017 -0.00982505 -0.09794874 -0.008350771 0.03580857 0.10095447
0.016678747 -0.11279861 0.03243147 -0.029538956 0.17003597 0.05231017 -0.1355149 0.020274682
0.1684009 0.041447002 -0.15789562 0.05835759 -0.039320953 0.015665106 0.021357907 -0.09198489
0.035334025 0.13081041 0.078865014 -0.040356312 -0.08404298 -0.087919414 0.10669694 0.13471638
0.016554842 0.07247994 0.1602672 0.02329792 0.020176826 -0.038337406 -0.07002194 -0.007758111
-0.031325504 -0.02798776 -0.08476352 0.07406791 0.025139371 0.040208608 0.060769588 0.13218336
0.10404651 -0.16652049 0.06867739 -0.00957986 -0.15664813 0.06843027 -0.069099456 0.08576129
0.086488225 0.13659489 0.13456419 0.051003464 0.14357758 0.14666131 0.10840121 0.026337648
0.0906393 -0.14361168 0.108875796 0.015337524 -0.11470731 -0.13436124 0.042185195 0.092794426
-0.06523055 -0.06863467 -0.05724891 -0.09697343 0.16875045 -0.040616125 -0.031023594 0.16333483
-0.0422324 -0.1793718 0.057136457 0.08625279 0.07847114 -0.16343072 0.09649869 -0.08745692
-0.014688006 -0.09546696 0.033562105 -0.050581634 -0.06198466 0.07783082 -0.10982313 -0.08942135

net.6.bias f4 [64]
00000000: 6cf6 c63d dc8a f03c 9cf6 cb3d 8d76 003d
00000010: 7f6e a1bc aad8 e33c e013 b03c e084 ce3d
00000020: 39ca fe3d 83a9 2abc 0a1f 7cbd 6040 b4bc
00000030: f4ea fbbc bf93 333d 2344 08bd 1cf8 063c
00000040: 032e bebb 828a 05bd bb20 fc3c 6780 d03d
00000050: a44f c23d 30ec 443d b899 a73d d032 5cbc
00000060: 9b06 a73c 75a0 a13d 54c4 7bbc 1c9a 51bd
00000070: c674 77bd 7729 dd3d 4985 223d 7c2c 983d
00000080: 8e61 ccbc bf6d 283d dacc 803d e6f2 4d3d
00000090: 7824 7d3d b289 043d 47bf 9c3d 83f1 d23c
000000a0: 9b33 ad3d 415c a9bc 915a 003c 1685 43bd
000000b0: f5f1 14bd f50d 313d 35fd a2bd 8488 fc3d
000000c0: 3620 a43d 4574 523d b654 c03d 8146 c4bc
000000d0: 9252 79bd 2418 193d 460e 24bd c3cd 883c
000000e0: 106c 06bc d9f2 fcbb 8529 02bd 9b27 8c3d
000000f0: 7e0e 113e e74f cd3c 1898 8a3d eb08 b93d
0.0971497 0.029363088 0.099591464 0.03136306 -0.019706009 0.027813274 0.021493852 0.10083938
0.12440915 -0.010416391 -0.06155304 -0.022003353 -0.030751683 0.043842074 -0.033268105 0.008237865
-0.005803825 -0.032602794 0.030777326 0.10180741 0.094878465 0.04807681 0.081836164 -0.013439849
0.020388892 0.07891933 -0.0153666325 -0.05117236 -0.0604141 0.107989244 0.039677892 0.0743036
-0.024948861 0.041120287 0.06289072 0.050280474 0.061802357 0.03235788 0.07653671 0.025749927
0.084571086 -0.020673873 0.007834093 -0.047734343 -0.03636356 0.0432262 -0.07958452 0.12330726
0.08013956 0.051380415 0.09391157 -0.0239594 -0.06086976 0.037376538 -0.040052675 0.016699677
-0.008204475 -0.0077193794 -0.031777877 0.06843492 0.14165685 0.025062514 0.06767291 0.09034904

net.9.weight f4 [41, 64]
00000000: 92e0 2dbe 179c 72bd 208f fd3d fd26 26be
00000010: ccb9 dfbc cd34 003e 7020 c7bc 2e6b 293e
00000020: c400 303e f082 98bd aef6 0dbb 6896 5fbd
00000030: b8e0 4bbe 7560 40be 1db9 fb3b 9d2f ac3d
00000040: 1421 763d e34b f8bd c5dc 0a3d 7caf 443e
00000050: 2b3d 63be f595 133e cf76 c63d df7c 0a3d
00000060: ec07 983c ca8c 0d3e 3631 cd3d 90aa 58be
00000070: 74fa 633b 6377 efbd bfe4 44be 088f 113d
00000080: 6f46 cc3d 0dc1 18be a7ff 8cbd e259 d03c
00000090: 21d0 3a3d 9abc 02be 7e24 5b3c ada8 6a3d
000000a0: 1cd9 b7bb 6740 a43d 3fd4 373e 45f1 9a3b
000000b0: 06cc f53d dfd3 303d a574 a7bd e7e4 a4bb
000000c0: 307d 3ebe 82b9 03ba 8cc6 383e 3aa2 d0bd
000000d0: d771 17bd 89a4 d2bd 4faf 16be 2d0b bc3d
000000e0: ab3f 7abd fb99 5ebc 6cb9 0e3d 09fe 05be
000000f0: e3ec 053b 5aae 413e 31bf 2abd 8324 33bd
00000100: 31be 4cbe 34c1 103e 2087 2c3e 65b9 febc
00000110: 18bb e2bd 2728 463e dca7 19bd 815f e03c
00000120: e943 d3bc 7708 7b3d 03ab 16be 5dbe 8b3c
00000130: 5c9c 2bbe 7ea7 073e d129 393e 4d99 37be
00000140: f16b 07bc 9eb6 d0bd 886c f53d fb1e 973b
00000150: ccc7 e73d 2143 3d3e 4522 dc3d 49c4 37be
00000160: eb1a e7bb 9844 d2bd 69f2 61be 92ca d13d
00000170: 6854 b73d cecc 0ebd 9768 06be 51a1 f0bd
00000180: ae3d b83c 8b2b 5bbe 7cb7 ddbd 2c79 29be
00000190: 0c55 00be 17f2 66be 358f 263e 05ca 12be
000001a0: cd71 5fbe 3f9e 55be b276 983d 30f9 083e
000001b0: e07b da3d d94b 133c 94ff a0bd 0ce2 aa3d
000001c0: 9bad 383e af53 dc3d 98c8 8abd 1343 edbd
000001d0: 734b 81bd 6158 8abd aac5 a13c 5f3b 25be
000001e0: 64b1 03be 9482 70bd 4aaa 2bbe b71e e4bc
000001f0: 30d0 ed3d 39b9 a73d d320 363d 6478 c43d
00000200: 33a0 3bbe 681a 743d 2349 f0bd d9ac 94bd
00000210: 5354 563e 44bc dabd 01ef e5bd fa57 fcbd
00000220: 12df 69bc 1bd8 a6bd 7ed8 acbb e5d3 c73b
00000230: d089 673d 962b 123e 50e7 5d3e 9cfa 1abe
00000240: eea9 033e 2483 1fbe f04b 94ba 5f55 00be
00000250: 3798 ba3d f804 42bd cc22 573b db9f 3fbd
00000260: 6df5 d93d 06a2 55be 84e8 433b a7aa d7bd
00000270: 352b aebd e1aa 403e c960 f83d c5db be3c
00000280: 7051 5cbe 0639 163c c41e f7bd 6f6d fb3d
00000290: ab91 14be e0d1 10be 1cc4 bb3d 1246 f13d
000002a0: 459f 233e d3b8 ccbd c375 57be b783 1a3e
000002b0: 4bc9 cfbd 0574 c8bd d29c 573c dfa3 a83c
000002c0: 4dcb 0a3e 399d 5b3d 3e3f 04be 4d90 0b3e
000002d0: 191b 403d f9c6 093e dc8d 61bc dd2f 25be
000002e0: 4b87 323e 4bd2 4b3e 94e3 e5bd 45a7 063e
000002f0: 940c 403c bd9b 3bbd a8de d03d d8b8 dc3d
00000300: 8871 93b9 8f74 d73d 17d1 203e 66a3 52be
00000310: 416e 22bd 72c7 9a3d 3cb2 003e 7503 f63d
00000320: a281 2b3e 5b0e 343b 4404 8d3d e669 253e
00000330: e17a acbd a8f3 0a3e 70aa 773d 023b 053e
00000340: f973 bf3d 3d4d 80be dfb6 f6bd 26bc 8f3c
00000350: c5a8 1cbd fb2d 103e 79cb c83d 9bb0 28be
00000360: 4e1f bebd 046f 53be a64a 473e 3287 e5bd
00000370: affc c2bd 4cf1 6d3d 70fb 003d 033f 103e
00000380: cb31 74be ac9e 1f3c 09cf 39bd d32a 71be
00000390: 5a1a 223e 4b36 15be c970 6a3d 6038 8f3c
000003a0: 1d89 663d 30f2 0f3e 2992 b53d d7a0 b9bd
000003b0: f18e d8bd 2085 d2bd 019c 35be 9b0e d9bd
000003c0: 221f 913c 34c4 683c 2cce a1bb 49b9 e03c
000003d0: 70db 63bd 0c87 fabd 4199 ac3d 9ff6 41bd
000003e0: 9890 6d3c 5c47 c9bd 29da 09be 30f6 06be
000003f0: f57c 0b3e 9d4f 11be 9315 1cbe e505 393c
-0.16980198 -0.05923089 0.123808146 -0.1622581 -0.027310275 0.12520142 -0.02430746 0.16544792
0.17187792 -0.07446849 -0.0021661925 -0.054586798 -0.19909942 -0.18786795 0.0076819793 0.08407519
0.06009014 -0.12123849 0.03390195 0.19207567 -0.22191302 0.14412673 0.0969063 0.033810493
0.018558465 0.13823238 0.10019152 -0.21158814 0.0034786733 -0.11692693 -0.19227885 0.035536796
0.09974372 -0.14917393 -0.06884699 0.025433484 0.045608643 -0.12767258 0.0133754 0.057289768
-0.0056105983 0.08020096 0.17952059 0.0047284686 0.12001805 0.043170806 -0.08176545 -0.00503217
-0.18602443 -0.0005024896 0.1804449 -0.10187192 -0.0369738 -0.10285289 -0.14715312 0.09181819
-0.061095875 -0.0135865165 0.0348448 -0.13085188 0.0020435385 0.18914166 -0.04168624 -0.043735992
-0.19994427 0.14136201 0.16848421 -0.031094262 -0.110708416 0.19351254 -0.0375136 0.02738929
-0.025789218 0.06128737 -0.14713673 0.017058546 -0.16758865 0.13247487 0.18082358 -0.17929573
-0.008265481 -0.101910815 0.11983591 0.0046118475 0.11317405 0.18482639 0.10748724 -0.1794597
-0.0070527694 -0.102669895 -0.22065128 0.10243715 0.08951646 -0.034863286 -0.13125835 -0.11749519
0.022490349 -0.21403329 -0.108260125 -0.1655013 -0.12532443 -0.22553287 0.16265567 -0.14334877
-0.21820755 -0.20861147 0.07444514 0.13376307 0.106681585 0.008990251 -0.07861248 0.08343896
0.18034975 0.10758149 -0.067765415 -0.11585059 -0.06313219 -0.06755138 0.019747574 -0.1613593
-0.12860638 -0.05871828 -0.16764179 -0.027846677 0.11611974 0.08189625 0.044464897 0.09593275
-0.1832283 0.059595495 -0.117327 -0.072595306 0.20930605 -0.1068044 -0.11227227 -0.12321468
-0.0142743755 -0.081466876 -0.0052748313 0.006098258 0.056527913 0.14274439 0.2167027 -0.15134662
0.12857792 -0.1557737 -0.0011314135 -0.12532566 0.09111064 -0.04736802 0.0032827137 -0.04678331
0.106425144 -0.20862588 0.0029893229 -0.10530596 -0.08504335 0.18815185 0.12127835 0.023298154
-0.21515441 0.009168869 -0.12066415 0.12276732 -0.14508693 -0.14142561 0.09168264 0.11780943
0.15978725 -0.0999619 -0.21041016 0.15089308 -0.101458155 -0.09787754 0.0131599475 0.020585952
0.13554116 0.053616736 -0.1291475 0.13629265 0.046900842 0.13454808 -0.013766732 -0.1613154
0.17434423 0.19904439 -0.11225048 0.13149746 0.011721749 -0.04580282 0.10198718 0.10777444
-0.00028122612 0.10520279 0.15704761 -0.20570144 -0.039655928 0.075575724 0.12567991 0.12012378
0.1674867 0.0027474377 0.06885579 0.16153678 -0.08421875 0.1356951 0.060465276 0.13010791
0.09348292 -0.25058928 -0.12046599 0.01754577 -0.03824689 0.1408004 0.09804434 -0.1647362
-0.09283315 -0.20647818 0.1946207 -0.11207427 -0.09520852 0.058091447 0.03148979 0.14086537
-0.2384712 0.00974242 -0.04536346 -0.23551492 0.15830365 -0.14571492 0.057236467 0.017482936
0.056283105 0.14057231 0.088657685 -0.09063881 -0.10574139 -0.10279298 -0.17735292 -0.10598489
0.01771504 0.014206935 -0.0049379077 0.0274321 -0.055629194 -0.122327894 0.08427668 -0.047354337
0.014499806 -0.09828064 -0.13462128 -0.1317985 0.13621886 -0.14190526 -0.15242605 0.011292909

net.9.bias f4 [41]
00000000: 1692 d8bc 2792 283d 8c61 8bbd 8239 823d
00000010: 79bc 933d dd65 84bd 531a 5b3d bf9c 353d
00000020: ec64 a7bd a96b 113d d783 353d 14d1 933d
00000030: 0dcd b23d 0851 48bc c37b 2dbd 2bae 10bd
00000040: 0a7a e4bc 3c39 b73d cf39 c8bd 33d7 183d
00000050: cb7f e6bd 6b78 ddbd 37fe eabd ddb7 8e3d
00000060: 1908 b2bd a072 b03a 948a 07be 1b81 c7bd
00000070: 9dd3 60bd 0b8a babc 65eb b7bc f084 653d
00000080: 24df ec3c 9e98 7f3c 5181 8dbd 1fdd 493d
00000090: 2c92 fcbd d4ea 94bd cd06 dbbc 7e33 81bb
000000a0: e0b3 64bd
-0.026436847 0.041155007 -0.06805715 0.06358625 0.07213683 -0.064647414 0.0534919 0.044338938
-0.08173546 0.035503063 0.044315185 0.07217613 0.087305166 -0.012226351 -0.042354356 -0.03532235
-0.027890224 0.089464635 -0.09776651 0.037314605 -0.11254843 -0.108139835 -0.11474269 0.06968663
-0.08692951 0.0013461895 -0.13236457 -0.09741422 -0.05488931 -0.022770902 -0.022451112 0.056034982
0.028914995 0.015600352 -0.06909431 0.049283143 -0.123325676 -0.072713524 -0.026736641 -0.003942906
-0.055835605
